Pytorch Model/pytorch_model.pth (torch, 5132 bytes, 10 tensors)

rnn1.weight_ih_l0 f4 [10, 2]
0	0xbe90b167	-0.28260347
1	0x3dc95a78	0.09831709
2	0xbc8f71e0	-0.017510355
3	0x3d678fd8	0.056533664
4	0xbd751e18	-0.059843153
5	0x3d49c350	0.04925853
6	0xbe9d8bc7	-0.30770704
7	0xbda2e5d4	-0.079539925
8	0x3e58975a	0.21151486
9	0xbe5ea176	-0.2174128
10	0x3e0c9d6a	0.13731924
11	0x3e0d985a	0.13827649
12	0xbe9fcf64	-0.31212914
13	0x3e0ea094	0.13928443
14	0xbdb3f3c8	-0.08786732
15	0xbd993c28	-0.07482177
16	0xbe67fb56	-0.22654471
17	0xbe387428	-0.1801306
18	0x3d77f800	0.060539246
19	0xbd666ee8	-0.056258112

rnn1.weight_hh_l0 f4 [10, 10]
0	0x3e988545	0.29789177
1	0x3e021e38	0.1270684
2	0x3c2b0a00	0.010439396
3	0xbe968d43	-0.2940465
4	0xbe988917	-0.2979209
5	0xbe9933a6	-0.29922217
6	0x3e4cf4c2	0.20015243
7	0x3d41c940	0.047311068
8	0xbdb51b8e	-0.08843146
9	0xbe9f7389	-0.31142834
10	0x3e7d141a	0.247147
11	0x3d6a9520	0.057271123
12	0xbe27eaea	-0.16398206
13	0x3e4ca0c2	0.19983199
14	0xbe899e90	-0.26878786
15	0x3e17f016	0.1483768
16	0xbe259c94	-0.16173011
17	0xbe761572	-0.24031618
18	0x3e29a1d4	0.16565639
19	0xbcdafd00	-0.026731968
20	0xbd9a4882	-0.07533361
21	0xbded8e88	-0.11599451
22	0xbe9d505e	-0.30725378
23	0xbe9ae92d	-0.30256024
24	0xbe9b0ecd	-0.3028473
25	0x3e6637ce	0.22482225
26	0x3e52693a	0.20547953
27	0xbdf64260	-0.12024379
28	0x3d9c7264	0.07639006
29	0x3dcdf9bc	0.10057399
30	0xbe9f23b2	-0.3108192
31	0x3d4dc280	0.050234318
32	0x3e7c082a	0.2461249
33	0xbd4601b8	-0.048341483
34	0x3d2836e0	0.041067958
35	0x3e39df26	0.1815153
36	0xbdaa5074	-0.083161265
37	0x3e6ed8fe	0.23324963
38	0x3d5d3df8	0.054014176
39	0xbe387252	-0.1801236
40	0xbe162f8e	-0.14666578
41	0xbdf0101a	-0.11721821
42	0x3e089090	0.13336396
43	0xbe9b45cc	-0.30326688
44	0x3dc5f1e4	0.096652776
45	0x3d0fca20	0.03510487
46	0xbe1325ee	-0.14369938
47	0xbe8c2e4c	-0.27379072
48	0xbd95d928	-0.0731681
49	0xbe168f1b	-0.14703028
50	0xbe99a036	-0.30005044
51	0xbe057dbf	-0.1303625
52	0xbad80800	-0.0016481876
53	0x3e2c9312	0.16852978
54	0x3e91699b	0.28400883
55	0x3e830ef9	0.2559736
56	0x3c683b20	0.014174253
57	0x3e212fb6	0.15740857
58	0x3aba6b00	0.0014222562
59	0x3e8c5341	0.27407268
60	0x3ced6950	0.028980881
61	0x3e7868ea	0.24258772
62	0xbe22a23e	-0.15882203
63	0xbd8c103c	-0.06839034
64	0x3e1eab38	0.15495002
65	0x3ea0d1b3	0.31409988
66	0xbe9a4972	-0.3013416
67	0xbe95c07d	-0.2924842
68	0x3d505140	0.050858736
69	0xbdf64252	-0.12024368
70	0x3e9f21b3	0.31080398
71	0xbe812d70	-0.2522998
72	0x3da6294c	0.081133455
73	0x3c0670a0	0.008205563
74	0x3e000c74	0.1250475
75	0xbe12efe5	-0.14349325
76	0xbcda2670	-0.026629657
77	0xbd438670	-0.04773563
78	0x3e8739bf	0.26411244
79	0xbde21e58	-0.11040944
80	0x3e49ba66	0.19700012
81	0xbdfa46d4	-0.12220541
82	0xbbefc580	-0.007317245
83	0x3e8c8cc3	0.27451143
84	0x3d218850	0.03943664
85	0x3e5cdb0e	0.21567938
86	0x3da57f8c	0.08080968
87	0x3ddb8690	0.10719025
88	0x3e45ea62	0.19327691
89	0xbe154700	-0.14577866
90	0xbe9c0563	-0.3047286
91	0xbbcceec0	-0.006254047
92	0xbdbcbf8c	-0.09216222
93	0x3e816189	0.25269726
94	0xbe9305f0	-0.28715467
95	0xbe94d579	-0.29069117
96	0xbd28c600	-0.041204453
97	0xbdc6301e	-0.096771464
98	0xbe99be54	-0.3002802
99	0xbe6b9dd4	-0.23009425

rnn1.bias_ih_l0 f4 [10]
0	0x3e2f665c	0.17128891
1	0xbe960715	-0.29302278
2	0x3e03405c	0.1281752
3	0x3e88ffd3	0.26757678
4	0x3ded94bc	0.116006345
5	0xbc924fc0	-0.017860293
6	0xbe3864c8	-0.18007195
7	0x3e818da7	0.25303385
8	0x3d648fd0	0.055801213
9	0x3e809e55	0.25120798

rnn1.bias_hh_l0 f4 [10]
0	0x3c121900	0.008917093
1	0xbe2b13ef	-0.16706823
2	0xbe1e19fe	-0.15439603
3	0xbe1e329e	-0.15448996
4	0xbe02ab02	-0.12760547
5	0x3e6bcf4a	0.23028293
6	0x3d582078	0.05276534
7	0xbc8d88e0	-0.017277181
8	0xbe272a69	-0.16324772
9	0xbc937430	-0.017999738

rnn2.weight_ih_l0 f4 [10, 10]
0	0x3d0ade20	0.03390324
1	0xbccea2b0	-0.02522406
2	0xbe5870cc	-0.21136779
3	0x3c9b5bf0	0.018964738
4	0xbdbc08be	-0.09181355
5	0x3cdc9b60	0.026929557
6	0xbd3faa80	-0.04679346
7	0x3def7270	0.11691749
8	0x3e3ee712	0.18642834
9	0x3e5019da	0.20322362
10	0x3e62ce9a	0.22149125
11	0x3e23cad6	0.15995345
12	0x3e7ace1e	0.2449269
13	0xbe116b4d	-0.14201088
14	0xbe5da360	-0.21644354
15	0xbc928650	-0.01788631
16	0x3cadc950	0.021214157
17	0xbe646316	-0.22303423
18	0xbe0b9078	-0.13629329
19	0xbe2f7999	-0.1713623
20	0x3e38da5c	0.18052047
21	0x3dfb9630	0.12284505
22	0x3dcb234c	0.09918842
23	0xbd3a9e70	-0.045561254
24	0xbe05f5d0	-0.13082051
25	0x3d232ab8	0.03983566
26	0x3e1443f2	0.14479044
27	0x3e386e26	0.18010768
28	0x3e26efe8	0.16302454
29	0xbdb734c0	-0.08945608
30	0x3e7a514e	0.24445078
31	0xbe24eb99	-0.16105498
32	0x3dddef6c	0.10836682
33	0x3e07ead2	0.1327317
34	0xbe363118	-0.17792165
35	0xbd6d02f0	-0.05786413
36	0xbe815b63	-0.25265035
37	0xbe2cade0	-0.16863203
38	0xbe3b0010	-0.18261743
39	0xbdc8fbc2	-0.09813644
40	0xbde59af4	-0.112111956
41	0xbe203547	-0.15645324
42	0xbe819b2a	-0.25313693
43	0x3e5aefd6	0.21380553
44	0x3cbf2c70	0.02333662
45	0xbe198256	-0.14991125
46	0xbd9641c4	-0.073367625
47	0x3c1427e0	0.00904271
48	0xbe0ebfba	-0.13940325
49	0x3c685c20	0.014182121
50	0xbe3b3c3e	-0.182847
51	0x3e1c59fe	0.15268704
52	0xbe60bcf5	-0.21947081
53	0x3e5c12ba	0.21491519
54	0xbe0512d5	-0.12995465
55	0x3e5cb15a	0.21552029
56	0xbe8f5704	-0.27996075
57	0xbe063ab9	-0.13108338
58	0x3e13d3f6	0.14436325
59	0x3b59aa00	0.00332129
60	0x3e3076e8	0.17232859
61	0xbdd0db9c	-0.10198137
62	0xbce24e10	-0.027625114
63	0xbdc04df6	-0.0938987
64	0xbe329e42	-0.17443183
65	0x3dd53530	0.10410535
66	0x3e1c7dc0	0.15282345
67	0x3e672372	0.22572115
68	0x3e7688aa	0.2407557
69	0x3e2cb4f0	0.16865897
70	0xbd42b9f0	-0.047540605
71	0xbe56e9f3	-0.20987682
72	0xbe048482	-0.12941173
73	0xbe709747	-0.23495208
74	0xbe983c75	-0.29733625
75	0xbe936837	-0.28790447
76	0x3e57a51e	0.21059081
77	0xbe9b9815	-0.30389467
78	0xbe5100f8	-0.20410526
79	0xbe2e1b7e	-0.17002675
80	0xbdcf7086	-0.10128884
81	0xbe14de29	-0.14537872
82	0x3de15820	0.11003137
83	0x3e924a97	0.28572533
84	0x3db67e90	0.08910859
85	0x3e0c3852	0.1369336
86	0x3e810a13	0.25203
87	0xbe09aaad	-0.13444014
88	0xbe8408c0	-0.25787926
89	0xbe212c76	-0.15739617
90	0xbe7dfc6c	-0.24803323
91	0xbd0980d8	-0.03357014
92	0x3e921243	0.28529558
93	0x3e9f6255	0.3112971
94	0xbe910327	-0.28322718
95	0x3d7550b0	0.059891403
96	0x3e9759db	0.29560742
97	0x3e8d57ef	0.2760615
98	0x3e95cf35	0.2925965
99	0x3e6ede3e	0.23326966

rnn2.weight_hh_l0 f4 [10, 10]
0	0xbe038238	-0.12842643
1	0xbd8d04be	-0.0688567
2	0xbe89319e	-0.26795667
3	0xbc2d18a0	-0.010564953
4	0xbda8d4ec	-0.082437366
5	0xbe8f9a89	-0.28047588
6	0x3da04280	0.07825184
7	0x3e5ae7f2	0.21377543
8	0x3d08d0f0	0.033402383
9	0x3e781702	0.24227527
10	0xbe6816f0	-0.22665
11	0x3e520cf2	0.2051275
12	0x3ea03495	0.31290117
13	0x3e5b2516	0.21400866
14	0xbdc9e976	-0.09858982
15	0x3e35af7e	0.17742726
16	0x3e2cc716	0.1687282
17	0x3d6a6b30	0.05723113
18	0xbdcf3bea	-0.101188496
19	0x3e8926e3	0.2678748
20	0xbe89ce14	-0.26915038
21	0x3d879dd0	0.06621897
22	0xbe356cf7	-0.17717348
23	0xbdf0f974	-0.117663294
24	0xbe92eee8	-0.28697896
25	0x3e753f02	0.23949817
26	0xbdf938da	-0.12169047
27	0xbdcdd7dc	-0.100509375
28	0x3e77ff46	0.24218473
29	0xbd9aeb68	-0.075644314
30	0x3e7a7efe	0.24462506
31	0xbe2ef405	-0.17085274
32	0xbe3d2c0a	-0.18473831
33	0xbe8ddbdc	-0.27706802
34	0x3e99b153	0.300181
35	0x3e9de2d1	0.3083711
36	0x3d3bf300	0.04588604
37	0x3da0a7dc	0.07844517
38	0x3e40620a	0.18787399
39	0x3e255b44	0.16148096
40	0xbde5fd62	-0.112299696
41	0xbe13d563	-0.1443687
42	0xbe90c849	-0.28277805
43	0xbe3fa17b	-0.18713944
44	0xbd64e000	-0.055877686
45	0xbe587e0a	-0.2114183
46	0x3da177ec	0.078842014
47	0xbe40c237	-0.18824087
48	0x3d99a0c0	0.07501364
49	0x3e9f55ad	0.31120053
50	0x3e0ebad2	0.13938454
51	0xbdd1edd8	-0.10250443
52	0xbe53f7e0	-0.20700026
53	0xbe35ab25	-0.17741068
54	0xbd44eef0	-0.04807943
55	0xbdf452d8	-0.11929864
56	0x3d9edec0	0.0775733
57	0x3dcbf76c	0.09959301
58	0xbdc59e24	-0.096493036
59	0xbc8bf850	-0.017086178
60	0xbe2d0f5d	-0.16900392
61	0xbe8a66a1	-0.27031425
62	0xbe49dff0	-0.19714332
63	0x3da3a10c	0.07989702
64	0xbe50b7fd	-0.20382686
65	0x3e5f69de	0.21817729
66	0xbdc032ba	-0.09384675
67	0xbd13a190	-0.03604275
68	0x3dccf36c	0.100073665
69	0x3db86694	0.0900394
70	0x3e7fa85a	0.24966565
71	0xbe9e698d	-0.30939904
72	0x3e8ed08d	0.27893487
73	0xbca6c7f0	-0.02035901
74	0xbe5a26a7	-0.21303807
75	0xbe5b8faa	-0.21441522
76	0x3d1879b8	0.037225455
77	0x3e04046e	0.12892315
78	0xbe560e60	-0.20903921
79	0x3ce77fa0	0.028259099
80	0xbdc6ea4c	-0.09712657
81	0xbcbc3170	-0.022972792
82	0xbdf6a506	-0.120431945
83	0x3d17ce68	0.03706208
84	0x3e4537aa	0.19259515
85	0xbe886112	-0.2663656
86	0x3d742650	0.05960685
87	0x3e396e6e	0.18108532
88	0x3e9f200d	0.3107914
89	0xbda219e0	-0.079150915
90	0x3e1c116e	0.15241024
91	0x3d2b6d30	0.041852176
92	0xbdc80042	-0.09765674
93	0xbe6c8a14	-0.23099548
94	0x3e8f4e43	0.27989396
95	0xbdb2b9de	-0.087268576
96	0xbe374a66	-0.17899475
97	0xbe3a3fd8	-0.18188417
98	0x3e402b52	0.18766525
99	0x3d9b3438	0.07578319

rnn2.bias_ih_l0 f4 [10]
0	0xbe4ec75a	-0.20193234
1	0xbe2dd00b	-0.16973893
2	0x3e51e02e	0.20495674
3	0xbd1e8a00	-0.038705826
4	0xbe756a18	-0.23966253
5	0xbe9ed7b9	-0.31023958
6	0xbdfe5afe	-0.12419699
7	0xbc1c3da0	-0.009536177
8	0x3e8a4be5	0.27011028
9	0xbe9b41c8	-0.30323625

rnn2.bias_hh_l0 f4 [10]
0	0x3e68025e	0.22657153
1	0x3e3b30a6	0.18280277
2	0xbe46853b	-0.19386761
3	0xbdb9d280	-0.09073353
4	0x3e3400e8	0.1757847
5	0x3e7ade16	0.24498782
6	0xbe309069	-0.17242588
7	0xbda4b5ca	-0.08042486
8	0xbe0e6643	-0.13906197
9	0x3da7c7a4	0.08192375

fc.weight f4 [4, 10]
0	0x3d840814	0.06446853
1	0xbe94e222	-0.29078776
2	0xbdfde7b0	-0.123977065
3	0xbda1d4e6	-0.07901935
4	0xbe90c168	-0.28272557
5	0x3d9a00ec	0.07519707
6	0x3e195b18	0.14976156
7	0x3dfad660	0.1224792
8	0x3e78b912	0.24289349
9	0x3e8bc61b	0.2729958
10	0xbe2022a4	-0.15638214
11	0xbb96ca00	-0.004601717
12	0xbb848b40	-0.00404492
13	0x3e858ecd	0.2608551
14	0x3e6b4032	0.22973707
15	0x3c1c8580	0.009553313
16	0xbe8410eb	-0.25794157
17	0x3e951f23	0.29125318
18	0x3e620ff6	0.22076401
19	0x3e925aa7	0.28584787
20	0xbe8ee6b2	-0.27910382
21	0x3b828680	0.003983319
22	0xbe570684	-0.2099858
23	0x3e03d864	0.12875515
24	0x3e912fd7	0.2835681
25	0x3e91b485	0.28458038
26	0x3e160906	0.1465188
27	0x3e38a076	0.18029961
28	0x3e059ac6	0.13047323
29	0x3d01b700	0.031668663
30	0xbc16b020	-0.009197265
31	0x3e295722	0.16537145
32	0x3e26a922	0.16275457
33	0xbe61a197	-0.22034298
34	0xbe88d456	-0.267245
35	0x3e679cca	0.22618404
36	0x3e6051fe	0.21906278
37	0x3c9ab500	0.018885136
38	0xbdb3957e	-0.08768748
39	0xbdd00f04	-0.10159114

fc.bias f4 [4]
0	0x3bff2bc0	0.007787198
1	0xbd435188	-0.047685176
2	0x3e918a17	0.28425667
3	0xbe98f83c	-0.29876888
