Pytorch Model/pytorch_model_trained.pth (torch, 5244 bytes, 10 tensors)

rnn1.weight_ih_l0 f4 [10, 2]
00000000: 9802 173e d08f 19be 8c9d c7bd db96 0b3e
00000010: 32b3 c2bd 13d2 c0be 5f42 873d 30a1 0cbe
00000020: 67b3 e33e 3fe1 e0bd a7a3 c33d b92f 0cbe
00000030: eaec a9bd ec71 d2be 02b0 513e 6fc5 e6bd
00000040: 1cf0 e53c 4c1d b7be 7785 fabd 03d8 f1bd
0.14747083 -0.14996266 -0.097468466 0.13631766 -0.09506835 -0.37660274 0.06604456 -0.13733363
0.4447281 -0.10980462 0.095526986 -0.1369008 -0.08297141 -0.4110254 0.20477298 -0.11268126
0.028068595 -0.3576454 -0.12232488 -0.11808779

rnn1.weight_hh_l0 f4 [10, 10]
00000000: b6a4 d4bd 7e82 74be 962b 303e 8ff5 ed3d
00000010: f805 6d3e ed1d 1a3e dcd0 0e3e 16c8 673e
00000020: 222b 33be 60a0 9a3e aa8f a53b 1903 e13d
00000030: 2095 27be 1e6c 27be a88b cebe 69d2 5a3e
00000040: faee a53d 4eff 05be 4659 973d 172d 39bd
00000050: cdee 8a3c 7cb7 19bd b414 bd3e 54e3 8bbe
00000060: 7cff 24be 08b8 aebe 5fce a33e 0fcb e73d
00000070: 63de 903e 5ff5 443e 655d b03e 32d5 2b3e
00000080: 5daa f3bc d0ae 8a3e 58cd 39be 0b9c 0b3d
00000090: 9029 563e 1619 cdbe f633 0fbe 64f0 2d3d
000000a0: 7418 5c3c d047 abbe 506e 7c3c 035b 1ebc
000000b0: f07f 97bd 1a17 533e 32e4 73be 5f2e 863e
000000c0: 92e4 7d3e f1fe 8c3d 98aa 15be 348e 183e
000000d0: 846c 57be 0df9 963e ecef 2d3e cfb4 803e
000000e0: 0d40 463e 630e 203d 78b5 0fbe e7f7 c9be
000000f0: 6ca9 9bbe 0f1c 953e 1f3b e23e 2855 86be
00000100: b337 a6be dc68 dc3d 5bc4 463e bc79 1abd
00000110: cd54 f23c 1e22 af3e dbdc c83c 9c2f 04bd
00000120: 73e5 9d3c 50b9 143e 3cd9 dc3e 97a4 813d
00000130: 6635 97be 9be0 563e dd5f 5abe 8da0 bebd
00000140: f967 9a3e fe7a 253e 9eb7 bb3e 0c2d c1be
00000150: faf6 0f3e 09b5 163d af3f be3d 531f 30be
00000160: 08dd 043e 61c8 01be 8dd6 78bd 08ba 7a3b
00000170: 1415 a0bd 5214 0dbe ee76 61be 57a6 843d
00000180: 1fab f9bd 181e 86be 5e47 c93e d0a3 933e
-0.103829786 -0.23877904 0.17204127 0.11619102 0.23146808 0.15050478 0.13946861 0.2263492
-0.17496923 0.3020048 0.0050525265 0.10986919 -0.1636548 -0.16349837 -0.40340924 0.21369328
0.08102222 -0.13085672 0.073900744 -0.045209017 0.016959572 -0.0375285 0.36929858 -0.27321875
-0.16113085 -0.3412478 0.31993386 0.11318027 0.28294668 0.19234227 0.34446254 0.16780546
-0.029744321 0.27086496 -0.18144739 0.03408436 0.20914292 -0.40058202 -0.13984665 0.042465582
0.013433564 -0.33453226 0.01540716 -0.009665254 -0.07397449 0.20614281 -0.23817518 0.26207253
0.24794224 0.06884564 -0.14615858 0.14897996 -0.21037489 0.29486886 0.16986054 0.25137946
0.19360371 0.03907622 -0.14034069 -0.39446947 -0.30402696 0.2912297 0.4418573 -0.26236844
-0.3246437 0.10762188 0.19410841 -0.03771375 0.029581452 0.34205717 0.024519375 -0.032271966
0.019274449 0.14523816 0.43134487 0.06330221 -0.29532927 0.20984118 -0.21325631 -0.093079664
0.3015745 0.16160199 0.36663526 -0.3772968 0.14059058 0.036793742 0.092894904 -0.17199449
0.12974942 -0.12674095 -0.060751487 0.0038257856 -0.0781652 -0.13777283 -0.22018024 0.06477039
-0.12190842 -0.26194835 0.3931226 0.28835917

rnn1.bias_ih_l0 f4 [10]
00000000: c8f9 993d c795 793e ed9b 50bd 3d39 2bbe
00000010: 8dde a33d 311e 83be a86d b6bd 5203 463c
00000020: 50d2 033d 2d84 953e
0.07518345 0.24373542 -0.050929952 -0.16721053 0.080014326 -0.25608972 -0.08907634 0.012085753
0.03218299 0.29202405

rnn1.bias_hh_l0 f4 [10]
00000000: 7dc0 7cbe a38a efbc 2a5a 833b 8e29 9fbe
00000010: 9868 36be 5bb0 83be 8c32 b7bd adba 453e
00000020: 5ba2 1bbe 515f 39be
-0.24682803 -0.029240912 0.004008551 -0.3108639 -0.17813337 -0.25720486 -0.08945188 0.19309492
-0.15198652 -0.18102767

rnn2.weight_ih_l0 f4 [10, 10]
00000000: 7dd9 2d3e fad6 b9bd 4efe 05be 994d 2abd
00000010: d934 fb3c 61e3 b2bd 8192 413e 0011 93bd
00000020: f9f3 f13d 5b17 d4bc 88b5 d53d 034f 50be
00000030: a861 7e3e 55e4 553e 6597 a13e 54c3 b13d
00000040: d05c ef3d e39c 973e 7db2 ce3e 64a4 c4bd
00000050: 664a f13b 1d21 3d3e a5a5 91bc 254f 0bbe
00000060: c1ea 373e dc93 f9bc 3243 563e 0827 a0be
00000070: e11a 763e e74a c83e 18fb 95bc d019 af3e
00000080: 422e d1be 9c13 b03d f338 48be 6ccd 8c3d
00000090: 41d2 6bbe 0ed5 2a3e 5deb 95be 0c9a 77be
000000a0: 4193 d83c 1184 34be 3afd 463e f241 bb3e
000000b0: ca62 bdbe dfd1 6cbe 7805 2a3e b7a2 cdbe
000000c0: 1e96 1fbc 73de 26be ec75 383e 9a00 9dbe
000000d0: 71c7 dc3d 5107 123d 6e26 e03c 4e9c 54be
000000e0: 85b1 1e3e 4707 b1bd 06fa 4dbb 5a87 233d
000000f0: 101e cabd edbd c93e bba1 a73d aa92 05bd
00000100: ce62 70be cc85 45be 63dd c13e f866 b9bc
00000110: 0b36 263e a4bf be3e e808 863e 7bdf a23e
00000120: 18fb f73d 84d0 0a3e bc82 133e c2ad 0ebe
00000130: 134e 453e bf35 2cbe abc1 593e ec66 973e
00000140: 9b0b 923d c535 58be 5c2d 51be 39ae 85be
00000150: 44f6 db3e 181a c53d bff6 ec3d ca4f 513e
00000160: 2006 04bd 31c0 983d eaf1 c6be 1133 9a3e
00000170: c034 453d ed2c a03d 1b57 6b3e a1fe a13e
00000180: 28e3 9abe 7ade 8a3e 661a f4bd a004 de3c
0.16977496 -0.09074207 -0.13085291 -0.04157791 0.030664848 -0.08734775 0.18903543 -0.07180977
0.11814112 -0.025890043 0.10435015 -0.2034264 0.2484194 0.20887883 0.31560817 0.08679834
0.116876245 0.29611883 0.4037055 -0.096016675 0.0073636053 0.18469663 -0.01777918 -0.1360441
0.17960645 -0.030466013 0.2092407 -0.31279778 0.24033691 0.39119646 -0.018308207 0.3419938
-0.40855604 0.0859749 -0.19552974 0.068751186 -0.23029424 0.16682836 -0.2928113 -0.24179858
0.026437404 -0.17628504 0.19432536 0.3657375 -0.36989433 -0.23126934 0.16603649 -0.40163204
-0.009740381 -0.16295795 0.18013734 -0.3066452 0.10780228 0.03565151 0.027362075 -0.2076275
0.15497406 -0.08643966 -0.0031429543 0.039924003 -0.09869015 0.39402714 0.081851445 -0.032610573
-0.23475191 -0.1928932 0.37864217 -0.022632107 0.16231553 0.37255585 0.2617867 0.31811127
0.12108439 0.13556105 0.1440534 -0.13933471 0.19268064 -0.16817378 0.21265285 0.2957071
0.0713112 -0.21114261 -0.2042746 -0.26109484 0.42961323 0.096241176 0.115705006 0.20440593
-0.032232404 0.074585326 -0.3885644 0.30117086 0.04814601 0.07821069 0.22982447 0.3163958
-0.3025143 0.2712286 -0.119190976 0.027101815

rnn2.weight_hh_l0 f4 [10, 10]
00000000: ae22 66be 0745 9e3e 0b0d 67bd 89b7 e7bd
00000010: 7ab3 fa3d d744 2b3d 3950 3a3e e161 8cbe
00000020: 3e1b 7ebe e9fd a83d 6c0c 553d 6537 3f3e
00000030: 5eda 143e 1fce 27be 3d13 d23d b306 16be
00000040: 0ee3 3a3e ab15 523e 8837 37be 22f5 aebd
00000050: 4213 bdbd 5d59 3abe 0534 0abe f7b8 a4be
00000060: fd9c 333e 5355 6fbe 1e74 913e b3ac 39be
00000070: d7ea 7dbe 3003 343e 2063 683d de40 8cbe
00000080: 489c 213e 8cef 953c 98d8 e73d b47f bdbe
00000090: 6f75 e1bd 131f 613e a089 84be 1f28 bf3e
000000a0: 092b ac3b 5e8c cd3d 483c 32bd ee8f 48be
000000b0: a534 7ebd 0f4b a43e 8c0b f0bd 939b 8abd
000000c0: 2b15 b9bc 9062 4b3e 8499 bdbe 6a54 04be
000000d0: 8351 3e3e 72f3 e7bc 6247 a73e eeab 7cbe
000000e0: 7691 e63d bd94 a33e 301f 8bbe 1a16 04be
000000f0: 35ee 27be 8738 dd3d 018b 163e e003 dabd
00000100: dbfe e8bc 4ace 5c3e ca08 99be 2fcd 46bc
00000110: 427b 073e 8c8b 993e 25cc 54be 8c2a 8dbd
00000120: abc6 55be 41ac 44be b0e7 b03e 8651 ed3d
00000130: 35f9 13be c9ac c03d e5f6 823e 2153 30be
00000140: eac8 363e 26fb 95bd 0a9a 04be ee6f c03e
00000150: eb62 9f3d 60ee 733e c608 a4be 4179 0cbe
00000160: af34 38be e554 bdbe f7eb 0cbe 244c 4e3e
00000170: 3abf debd 536f 903e 66f4 bebd 15cc a83d
00000180: a74d c7bd fd6b 213e 363b d73c 82a8 97bd
-0.22474167 0.3091204 -0.056408923 -0.113143034 0.12241264 0.041813698 0.18194665 -0.27418426
-0.2481508 0.082515545 0.0520138 0.18673475 0.14536425 -0.16387223 0.10257576 -0.14650993
0.18250677 0.20516078 -0.17892277 -0.08542849 -0.09232189 -0.18198152 -0.13496406 -0.32172367
0.17540355 -0.23372392 0.28408903 -0.18132286 -0.24796616 0.17579341 0.056735158 -0.2739324
0.15782273 0.018302701 0.11320609 -0.37011492 -0.11008727 0.2198451 -0.2588625 0.37335297
0.0052541536 0.100365385 -0.04351452 -0.19586155 -0.062061924 0.32088515 -0.117209524 -0.06767955
-0.022593101 0.19861817 -0.37031186 -0.12922826 0.18585782 -0.028314326 0.32671648 -0.24674961
0.11258213 0.31949416 -0.27172232 -0.12899056 -0.16399463 0.10801797 0.14701463 -0.1064527
-0.028441837 0.21563068 -0.29889518 -0.0121338805 0.13230613 0.29989278 -0.20781 -0.06892881
-0.20876567 -0.19206335 0.34551764 0.11587815 -0.14450534 0.09407956 0.2557899 -0.17219211
0.1785008 -0.073232934 -0.12949386 0.37585396 0.07782539 0.23821402 -0.32037944 -0.1371813
-0.17988847 -0.36978832 -0.13761888 0.20146233 -0.10876317 0.28209934 -0.09323959 0.082420506
-0.09731608 0.1576385 0.026273351 -0.07405187

rnn2.bias_ih_l0 f4 [10]
00000000: 4dcc b23d 1202 5bbd b2ca 943d 569d cbb9
00000010: 60d9 a7bb 4efa eb3d 9fc4 743e 513a 473e
00000020: 9e49 b43a 4e62 7bbe
0.087303735 -0.05346877 0.072652236 -0.00038836402 -0.0051223487 0.11522351 0.2390313 0.1945584
0.001375485 -0.24549219

rnn2.bias_hh_l0 f4 [10]
00000000: 76c1 81bd e046 123e c341 2c3e 85ac c4bd
00000010: 2018 863e 860e 35be 5cc1 2cbe eac0 a03d
00000020: cfe1 70bd c690 4f3e
-0.06335728 0.14284849 0.16821961 -0.09603218 0.2619028 -0.17681322 -0.16870636 0.078492954
-0.058809098 0.2027007

fc.weight f4 [4, 10]
00000000: 2004 853b db73 cf3e 9b0c 1d3e 0da2 c7be
00000010: 3a93 343e 7fbb 8dbc 4faf 2f3e e804 933d
00000020: 9a6c 083e c744 83be 06d0 33be 321a 69be
00000030: 1a1d 9a3e 4a20 92be 2698 aa3e 5f77 bebd
00000040: 9aab 753e cade 543e 2040 d2be 6734 7dbe
00000050: 79ca 3bbe d182 8c3e 0878 63bc 8671 59be
00000060: bc6e 45be bb72 b4bd 2145 12be 4eac 83bd
00000070: f5c1 243d a08c d5bc 25b7 84be 056d 93be
00000080: 4c54 bbbd 88f1 5e3e 6c03 cdbd b19d 95be
00000090: 37c0 ce3d c097 b6be e552 a0bd 5ffd 923e
0.0040593296 0.40518078 0.1533684 -0.38990822 0.17634287 -0.01730132 0.17156719 0.0717867
0.13322678 -0.2563841 -0.17559823 -0.22763899 0.30100328 -0.2854026 0.33319205 -0.09300112
0.23991242 0.20788112 -0.41064548 -0.24727021 -0.18338956 0.27443555 -0.013883598 -0.21234712
-0.19280523 -0.088109456 -0.14284183 -0.06429349 0.040224034 -0.026068032 -0.25920978 -0.28794113
-0.09146938 0.21771824 -0.10010418 -0.29221871 0.10095256 -0.3566265 -0.07828311 0.28708932

fc.bias f4 [4]
00000000: 2517 d43d 09a2 30be 0d37 6b3e bd06 733e
0.10355977 -0.17249312 0.22970219 0.23733039
