Pytorch Model/pytorch_model.pth (torch, 90060 bytes, 6 tensors)

rnn1.bias_ih_l0 f4 [256]
00000000: 79fe b8bc 0371 8b3c ec4d a23c d9e5 543d
00000010: 1888 173d 15bf 1a3d ebac 783c 0712 b23c
00000020: a49f 2f3c 9fc8 d63c 13ac 603d 76cb b7bb
00000030: 9356 c3bc 58cf a43b 713e 353d c87a 6a3d
00000040: a51f 8d3d 12f3 503c 266d 223d 503d 043d
00000050: c383 e63b a8ec 563d b42d 923c 339f 9d3c
00000060: 0b33 463d 76fd a63c 1817 0e3d d0ed 9d3c
00000070: b044 5f3d 7ccc d33c e02f 0f3d e12b 6e3d
00000080: d33d 3b3d 8e01 cdba c04c 453c c7d6 0e3d
00000090: 43c9 ac3c 5414 123d 3653 243d 31f5 e63c
000000a0: 99d1 8b3c b58c 493d 1d2a 5e3d 0bac 9d3c
000000b0: 7e86 133c 710d 7b3c 5a6d 1e3d bbd9 a73b
000000c0: cd29 3c3d f4e9 e4bb 650f 823d a7db 2b3b
000000d0: fa54 453d 557d 5a3d f568 253d 0d8e 833d
000000e0: f772 99bb 717a e23c 42a1 c23c 4154 413d
000000f0: 1537 30bc db4e de3c 00cc 9e3d 6da4 3f3d
00000100: e942 7d3f 083f 803f 41a3 833f 7701 833f
00000110: f187 833f 5740 813f 52ed 823f b30e 833f
00000120: e38a 843f 703d 823f bb9d 823f 62a4 7f3f
00000130: 8877 7c3f 902d 823f a7d3 843f d9ec 833f
00000140: e038 873f b2eb 803f 1cb9 823f 375e 853f
00000150: 1d3b 803f 58ee 833f 7e61 833f 4cd3 823f
00000160: 6283 823f 4503 813f 28d2 813f af18 803f
00000170: b440 843f 8df4 823f da9c 833f 4ea3 843f
00000180: ea46 833f 47fa 803f e69e 823f 976f 833f
00000190: fb30 813f a2d7 823f 879f 843f 4d91 843f
000001a0: b3c0 803f 35d5 833f f74d 843f aab6 833f
000001b0: bd17 813f 11a4 813f 4db2 7e3f 0190 813f
000001c0: dde9 813f e812 7d3f fecb 843f 24c1 7f3f
000001d0: bcf5 823f 2893 843f d0ed 813f f187 853f
000001e0: f38a 813f 8f5e 843f 6b04 823f 6325 853f
000001f0: 3919 803f 94ee 803f e122 893f 52f4 823f
00000200: 706d e43b f168 a53c 76b3 fcbb 2436 2ebc
00000210: 782f 71bb 459b 3f3c 2da3 dc3c 791c 87ba
00000220: 21f2 ba3c 7e97 253c 0614 84bc cda0 6ebc
00000230: e632 993c 15b0 443b 26c8 a43b 26bf a1bc
00000240: fad6 05bc 2749 00bb 6e34 2cbc acac 5ebc
00000250: 8b68 fe3a 9071 223c 723e 61bc ca5f 513c
00000260: 636c 39bc 4358 0c3a 2b78 38bc bc3b 2c3c
00000270: 1246 6bbc 3fa2 a9bc 2ed7 efbb 5d32 b4bb
00000280: a72a f83a 2952 a43c b06e 36bc 392c 473b
00000290: a0b9 84bc a778 783c 0cd6 9f3b 93a5 a8bc
000002a0: 274b b03c e224 07bc bf66 a6bc 81f2 6c3b
000002b0: 9017 e6bc 8301 713c bc9f 41bc 6c95 d8ba
000002c0: 3209 96bc e5f0 91bb 3ef7 6f3a d46b 7d3c
000002d0: 27e2 8bbb ff4b b2ba 43af 353a 3a5b 7fbb
000002e0: 34da 44bb 23d3 a53b c59d 4fbc cd1c c53c
000002f0: ac15 81bc 0c18 b13c 33ce 34bc a08e 573b
00000300: 0fb8 c7bc 3f31 ac3c 9af7 bb3c 6abb 683d
00000310: c753 193d 29a3 3a3d 44b4 303c dc2e d33c
00000320: b2e6 763c 0bc9 c83c c9a2 6f3d 8c92 bfbb
00000330: 8ef3 bbbc c46a 333c 8348 493d a375 633d
00000340: 5440 933d e4bf 233c 3ba4 4c3d 6eba 023d
00000350: f643 8b3b b5d7 683d 859f 8a3c f3fc b33c
00000360: c41f 403d 17d3 823c fee4 df3c c0e4 eb3c
00000370: f6e2 6e3d 343b ec3c 6470 293d 61c9 813d
00000380: 73ba 3e3d 1ce3 2839 c3b3 af3c 695f 203d
00000390: b62e af3c 06da 3f3d b675 243d 39ad ee3c
000003a0: 41b2 f13c 2ea2 6a3d 4e06 503d fe0b 1c3d
000003b0: 690e 903c 7cc1 603c 60d7 213d b21a 513c
000003c0: 80e3 623d 9885 9a3b d8d0 943d 8ea4 983b
000003d0: ff6a 5d3d 9350 593d 6812 143d 0679 933d
000003e0: 0825 993a b345 393d 0704 e03c 3456 5d3d
000003f0: 6c21 55bc eaa2 d33c 9fd8 9c3d 6618 403d
-0.02258228 0.017021662 0.019812547 0.051977012 0.036995023 0.037779886 0.015177946 0.021737112
0.010719214 0.02621871 0.054851603 -0.005608971 -0.023844993 0.0050296 0.044249002 0.057246
0.06890801 0.012753265 0.039654873 0.032285035 0.00703475 0.052471787 0.017844059 0.019240951
0.048388522 0.020384531 0.034689993 0.019278437 0.054508865 0.025854342 0.034957767 0.058147315
0.045713257 -0.0015640722 0.012042224 0.034872796 0.021092063 0.035663918 0.04011842 0.028193088
0.017067717 0.049206454 0.05423938 0.019247076 0.009004233 0.015323029 0.038678505 0.005122391
0.0459383 -0.006985897 0.063505925 0.0026223452 0.048176743 0.053342182 0.040383298 0.064235784
-0.0046828943 0.027646275 0.023758534 0.04719949 -0.01075532 0.02713721 0.07753754 0.046787668
0.9893022 1.0019236 1.0284196 1.0234822 1.0275861 1.009776 1.0228674 1.0238861
1.0354885 1.0174999 1.0204386 0.99860203 0.9861989 1.0170155 1.0377091 1.0306655
1.0564232 1.0071929 1.0212741 1.0419377 1.001804 1.0307112 1.0264127 1.0220733
1.0196345 1.0079123 1.014226 1.0007533 1.0332246 1.0230881 1.0282242 1.0362337
1.0256016 1.0076379 1.0204742 1.026843 1.0093073 1.0222056 1.0361184 1.0356842
1.0058807 1.0299441 1.0336293 1.029012 1.0085369 1.0128194 0.99490815 1.0122072
1.0149494 0.98856974 1.0374753 0.99904084 1.0231242 1.0357409 1.01507 1.0432111
1.0120529 1.0341357 1.0157598 1.0402035 1.0007697 1.0072808 1.0713769 1.0230811
0.006971054 0.020191642 -0.007711823 -0.010633025 -0.0036801975 0.011694734 0.026933277 -0.0010308168
0.022820534 0.010106919 -0.01612283 -0.014564705 0.018701028 0.003001218 0.0050287424 -0.019744467
-0.00816893 -0.0019574852 -0.010510547 -0.013590973 0.0019409818 0.009914771 -0.013747798 0.012779186
-0.011317345 0.0005353728 -0.011259119 0.010512289 -0.014359968 -0.020707248 -0.0073193526 -0.005499168
0.001893361 0.020058708 -0.011134788 0.003039135 -0.016201794 0.0151654845 0.0048778113 -0.020586764
0.02152021 -0.00824854 -0.020312665 0.0036155286 -0.028087407 0.014709833 -0.011817869 -0.0016524023
-0.018314932 -0.0044537657 0.00091539684 0.015467603 -0.004268903 -0.0013602971 0.0006930718 -0.0038964287
-0.0030037286 0.00506057 -0.0126718925 0.024061585 -0.015757404 0.021617912 -0.01103549 0.0032891408
-0.024379758 0.021019576 0.022945214 0.056819357 0.037433412 0.045565758 0.010785166 0.02577918
0.0150696505 0.024509927 0.058504853 -0.005846327 -0.022943284 0.010950748 0.04914142 0.05553211
0.07190004 0.009994481 0.04996131 0.031916074 0.004250045 0.05684634 0.016921768 0.021971202
0.046905294 0.015969796 0.027330872 0.0287956 0.058321916 0.028836824 0.04136695 0.06337238
0.04656453 0.00016106333 0.021448022 0.03915349 0.021384578 0.046838783 0.04015132 0.029135333
0.029503943 0.057283573 0.050787263 0.038097374 0.017584996 0.013718005 0.03951204 0.012762712
0.055392742 0.0047156326 0.07266396 0.0046582883 0.054057118 0.053055357 0.036150366 0.07200818
0.001168401 0.045232486 0.02734567 0.054037288 -0.013008457 0.02583452 0.07658505 0.04689827

rnn1.bias_hh_l0 f4 [10]
00000000: 0000 0000 0000 0000 0000 0000 0000 0000
00000010: 0000 0000 0000 0000 0000 0000 0000 0000
00000020: 0000 0000 0000 0000
0.0 0.0 0.0 0.0 0.0 0.0 0.0 0.0
0.0 0.0

rnn2.weight_hh_l0 f4 [64]
00000000: 7d6a 1bbc c645 03ba c1fd 103b 0000 0000
00000010: ed65 96ba 9416 2c3c 9b35 c3bc fc2b 453c
00000020: 16b5 ebba 7e34 53bb cc83 c6bb 7b84 653c
00000030: 40e6 ee3b 6663 903c 0a10 88bb ebf9 323c
00000040: 7be7 493c d50c 0f39 855a 6d3c 6103 6d3c
00000050: f177 123c f428 eebb 6094 2a3c f1c4 39bd
00000060: 0000 0000 ea7c ad3c 7665 0a3c 5dce d43a
00000070: b7b2 f23c 1892 643b bc0f d53b 0000 0000
00000080: 413f 2b3c cebc a03c 8584 d93b cd8a 443c
00000090: 0000 0000 a2df cc3c 0000 0000 80f1 abbc
000000a0: b52c bfbc 90b9 59bc 6c4f fa3c 0f54 a8bc
000000b0: a3f6 643b 429b 1f3c 49be 93bc 050a d83b
000000c0: 3c58 c2ba 3916 af3c 5dde adbb 167a 73bc
000000d0: 519c 503c d624 db3a 17b2 d13c 0000 0000
000000e0: 2d0a 133d d33c a9bc 5198 ff3c 2fae f3bb
000000f0: 0d25 213c e5ea 973c 7142 b53c 6586 183a
-0.009485838 -0.00050076505 0.0022123905 0.0 -0.0011474468 0.01050343 -0.023829272 0.0120344125
-0.0017983045 -0.0032227333 -0.006058192 0.014008637 0.0072906315 0.017625522 -0.0041523026 0.010923843
0.012323256 0.00013642323 0.014486914 0.014466138 0.008939729 -0.0072680656 0.010411352 -0.045353834
0.0 0.021177728 0.008447042 0.0016235817 0.029626234 0.0034877118 0.00650212 0.0
0.010452093 0.01962128 0.006638112 0.011995983 0.0 0.02500898 0.0 -0.02098918
-0.023336748 -0.01328887 0.03055545 -0.020547895 0.0034937046 0.009741606 -0.018035071 0.0065929913
-0.0014827321 0.021372901 -0.005306049 -0.0148606505 0.012732581 0.0016719352 0.025597615 0.0
0.035898376 -0.020658886 0.03120056 -0.007436536 0.009835494 0.018544624 0.022126408 0.0005818366

rnn2.bias_ih_l0 f4 [10]
00000000: 0000 0000 0000 0000 0000 0000 0000 0000
00000010: 0000 0000 0000 0000 0000 0000 0000 0000
00000020: 0000 0000 0000 0000
0.0 0.0 0.0 0.0 0.0 0.0 0.0 0.0
0.0 0.0

rnn2.bias_hh_l0 f4 [10]
00000000: 0000 0000 0000 0000 0000 0000 0000 0000
00000010: 0000 0000 0000 0000 0000 0000 0000 0000
00000020: 0000 0000 0000 0000
0.0 0.0 0.0 0.0 0.0 0.0 0.0 0.0
0.0 0.0

fc.bias f4 [4]
00000000: 31f7 4e3c 674a 4bbb 075b 7dbb 439b 61bb
0.012632177 -0.003101969 -0.0038658993 -0.0034424819
