Pytorch Model/trained_model.pth (torch, 91592 bytes, 8 tensors)

lstm.weight_ih_l0 f4 [256, 3]
00000000: b096 383d 2450 593d 5c64 bc3d e52c 383d
00000010: 8949 13bd a471 e8bd 630b da3d 4311 903b
00000020: c2ff f3bd 1d22 9e3d 1833 56bc 50a1 413c
00000030: a9f7 a33d 1d00 7ebd 624e a73d 1231 183e
00000040: 6807 9b3d 9eb6 ffbd 2ad2 e63c 782a 28bd
00000050: 1cdf c93d 072b a63d f59a 943d 206f f93b
00000060: 8a4f 133e 788d 493e 2a67 b5bd 7877 ce3d
00000070: e17d 0d3d 408b 8fbc fa7b 013e 02eb d13c
00000080: 48df 93bd e2aa bf3a 8310 c93d cc12 3cbd
00000090: ba15 fd3c d8de 103e c87a 463d 95fa e9bc
000000a0: 5ccf cebc 1aa4 913d 7e51 d439 45d9 4bbd
000000b0: dc8f f7bd 3585 f13d de99 1b3d 38d8 b0bd
000000c0: 4053 b53d 05d9 0f3e e442 74bd ccc1 83bd
000000d0: 371c b0bd 12cf ffbd 9e92 393a e20e 41b8
000000e0: 4e30 c4bd 51b2 9e3d 9ef3 103e facf e1bd
000000f0: 5589 8fbd ca95 f7bb a057 ab3b 9a99 0b3d
00000100: 2b5d 163e 300d a4bc aa40 a03c 4ad3 8dbc
00000110: 4452 be3d 0a2c 09bd efbe 81bb c6e7 c0bd
00000120: 86a4 b4bc f59a 073e 6031 30bc 6a59 083d
00000130: d301 fd3d f8e9 5d3d 501b a9bc 2958 373d
00000140: 1ebc b23d beef 1c3e ffd2 cebc d4ca 433d
00000150: 352e 323e 3f23 35bc c6d9 b1bd 8a2c b3bc
00000160: 93e7 db3d 288a 2abd 30de 94bd 6b74 5a3d
00000170: c2d8 b5bd f659 fb3d 34f7 e3bd 04f6 7a3d
00000180: 100b 07bd d86f f73c 1cfc f53d 228b fd3d
00000190: e49e 1dbd 8009 15bd 6a80 ce3b da14 83bc
000001a0: 80fc acba 65be 9a3b 6a41 873d a830 603d
000001b0: e158 793c 3164 a13c 0478 853d 3918 8f3d
000001c0: 9ee2 f83d 2098 e2bc 9e40 233b 0969 1a3e
000001d0: 3603 d93d 665c b43d b70a 9f3d 9c4f b8bd
000001e0: c49c 263e 1acb 6c3d 08b0 eb3d cb15 edbd
000001f0: f05b bf3d 50e4 1fbd 1228 80ba 0a5a 753c
00000200: f85b c3bd 9b83 7dbd a218 22bd f0dd f23c
00000210: 5942 bcbd 02e7 01bd 0024 c2b9 1115 40bd
00000220: 93b5 91bd d8e0 4fbd a94d 643d 99a3 283d
00000230: d496 25bd 1110 ae3c 2ab2 1d3e f081 6b3c
00000240: a534 b33d 48c1 573d be03 c9bd 4a9e 1f3e
00000250: 41b3 503c 6465 67bd bc1a 18bd 0306 0e3e
00000260: 2815 ea3d 19c3 debd 2015 75bb d41a 593d
00000270: 02be d13d 6116 d8bd 0894 91bd 4316 a4bd
00000280: 89a8 c3bd e839 7fbd 6ae1 e33d 0bed 433e
00000290: e8b5 bc3c abf5 65bd 44bf 3cbd e0a0 e13b
000002a0: 0f9c 173d efba be3c 6060 8fbd aecb 323d
000002b0: 3d78 8ebc 80c9 213d 6944 08bd 455f ed3d
000002c0: f019 76bc 6199 853d 3832 b13d a0db 82bd
000002d0: 1b3a 9b3d abed b0bd 00d1 d73b cad0 fc3c
000002e0: 8fd7 803d 5a03 be3d 7ab4 a6bc 2867 383e
000002f0: 7690 c23d b8b0 bf3d c309 f5bc e8e1 e8bd
00000300: cb40 9abc 3ae5 373b 7056 f13c 43c8 103e
00000310: 700c 29bd 18b0 6bbd 6a74 b8bd eead 02bc
00000320: 84a6 2a3d 9816 5ebd 153e 36bd c660 cf3d
00000330: 2a25 88bd 979f fc3d 4855 923c 186b 353d
00000340: 5400 273e ac9c 833d ce80 093d 234a 1abc
00000350: 005b 1bbc 0e5e 733d 0612 28bd aaf0 a8bd
00000360: ecd8 4b3c fc17 5c3d 9882 873c 6f82 52bd
00000370: 4375 fbbc c05b d13d 97c0 473e 7080 2c3e
00000380: e051 863c 6468 083e dde0 d83d 28d6 233d
00000390: 468f dbbd 6de6 2f3e 4891 fbbd 1242 713d
000003a0: 14ec 4e3d 7e95 f0bd 2bac bc3c 0c11 f73d
000003b0: d0dc 08bd 68e3 99bd 47e4 66bc c037 4fbd
000003c0: 16cb e13d 3398 dd3d 7a68 e13d f4e2 c2bd
000003d0: 455a a43d 542e 783d 7360 043e bf72 593b
000003e0: 20da a03c ede8 3d3d 7181 fd3d c03c 3ebd
000003f0: 8fcb 883d b4d0 eebc a037 9abd e20d 083e
0.04506558 0.053054944 0.091988295 0.04496469 -0.0359588 -0.113498 0.10646703 0.004396589
-0.11914016 0.0772135 -0.013073705 0.011818245 0.08006222 -0.062011827 0.08169247 0.14862469
0.07569772 -0.12486003 0.028176386 -0.041056126 0.09857008 0.081136756 0.07256118 0.007612124
0.1438581 0.19682872 -0.088575676 0.100813806 0.034543876 -0.017522454 0.1264495 0.025624756
-0.07220322 0.0014623071 0.098176025 -0.045916364 0.03089415 0.14147508 0.048456937 -0.02856187
-0.025245361 0.07111378 0.00040496507 -0.04976775 -0.12087986 0.11792985 0.037988536 -0.086349905
0.08853769 0.1404763 -0.059634104 -0.06433448 -0.085991316 -0.124906674 0.00070790376 -4.6028646e-05
-0.09579526 0.07748855 0.14155433 -0.110259965 -0.07008616 -0.007555698 0.0052289516 0.034082033
0.14683978 -0.02002582 0.019562084 -0.017312665 0.09293035 -0.033489265 -0.0039595286 -0.09419207
-0.022051107 0.13242705 -0.010753959 0.033288397 0.123538636 0.054178208 -0.020642906 0.04476181
0.08727287 0.1532583 -0.025247095 0.047800854 0.17400439 -0.011055767 -0.08684115 -0.021871824
0.10737529 -0.041635662 -0.072689414 0.05333368 -0.08879234 0.12273018 -0.11131135 0.061269775
-0.032969534 0.030204698 0.12010977 0.12380053 -0.038481608 -0.036386013 0.0063019292 -0.016001154
-0.001319781 0.004722404 0.066042736 0.054733902 0.015218944 0.019701095 0.06517032 0.06987042
0.12152599 -0.02766043 0.002491034 0.1507913 0.105963156 0.08806686 0.077657156 -0.08999559
0.16270739 0.05781088 0.11508185 -0.11576422 0.093437076 -0.039036095 -0.0009777567 0.01497508
-0.09539026 -0.061893087 -0.039574273 0.029646844 -0.09192342 -0.031714447 -0.00037029386 -0.04689509
-0.07114711 -0.050751537 0.055738125 0.041171644 -0.040427044 0.021247895 0.15399995 0.014374241
0.087502755 0.05267456 -0.09815167 0.15587726 0.01273805 -0.056493178 -0.03713487 0.13869481
0.114298165 -0.10877056 -0.0037396625 0.0530041 0.10241319 -0.105511434 -0.07108313 -0.080120586
-0.0955363 -0.062311083 0.11126979 0.19133393 0.023035958 -0.05614249 -0.046080843 0.006885633
0.037014063 0.023282496 -0.07000804 0.043651275 -0.017391318 0.039498806 -0.033268366 0.11590437
-0.015020832 0.06523395 0.086521566 -0.063895464 0.07579442 -0.086390816 0.006586194 0.030861277
0.062911145 0.09277983 -0.02034973 0.18008101 0.0950021 0.09359878 -0.029911881 -0.11371213
-0.018829724 0.0028060214 0.029460162 0.14138894 -0.041271627 -0.057540983 -0.09006579 -0.007976038
0.041662708 -0.054220766 -0.0444928 0.1012588 -0.066477135 0.12335127 0.01786293 0.044291586
0.16308719 0.06426367 0.033570103 -0.00941709 -0.009482145 0.05941587 -0.041032813 -0.08249028
0.012441855 0.05373381 0.016541764 -0.051393922 -0.030695563 0.10222578 0.19507061 0.1684587
0.016396463 0.13321072 0.10589764 0.039999157 -0.107206866 0.17177744 -0.122835696 0.0589009
0.05051811 -0.11747263 0.023031315 0.12063798 -0.03341371 -0.075140774 -0.0140925115 -0.050590277
0.11025064 0.10820045 0.110062554 -0.09515944 0.0802503 0.060591057 0.12927417 0.0033179966
0.01963526 0.046364713 0.123782046 -0.046444654 0.06679451 -0.029152252 -0.07530141 0.13286546

lstm.weight_hh_l0 f4 [256, 64]
00000000: 5e98 dbbd 03e0 a9bc ca2d 49bb 3f42 f4bc
00000010: a736 eabd d95f 163b aaba f23c d1e6 9abd
00000020: 0bf7 053e 3420 283c 08ba 43bd d1a2 cb3d
00000030: 9c4f 963c 7452 05bd 0003 873c 2b1a 103e
00000040: 203b 6c3d 447f a9bd 5463 4cbd 0f32 3e3d
00000050: b728 65bd ea8f 88bc ce75 633d 0e3a 013e
00000060: 6583 803d 1a3a b1bd f9f0 70bd 175b 32bd
00000070: 3865 f4bd d645 7b3d 0314 10be 42dd 4dbc
00000080: 484b 3f3d 3148 90bd 23bb 823d e7d1 9fbd
00000090: 8496 f0ba fbb6 d43d 70d8 14be f9b8 b7bd
000000a0: ab56 1abe 6c63 903c 210e 39bd c266 c4bd
000000b0: 1eea 9bbd 0f80 983d c2a5 143a bc71 df3c
000000c0: 3b36 003d 091e ca3d d6ef 983d b9ad c03d
000000d0: b92c 273d 809d 303d 58a8 463d dea4 003e
000000e0: c563 a2bb d3fa 2b3e 093f 6a3d aea7 a1bd
000000f0: d5dd 903d e321 db3d c11e 8c3c 1faa 403a
00000100: 5473 e6bd 169f 96bd a86d 21bd 4135 3c3d
00000110: da8e 043c 3713 873d 7b4e 4a3d 6a7b 723d
00000120: 0438 10bc 7b64 99bd 80bd 9d3c b686 3abc
00000130: 2e3e 9d3c 5668 eebd 5208 333d 92ac a73d
00000140: 3996 2ebd 7a0e 21bb 3604 ec3d 0ee8 32bd
00000150: 8dcf 013d 4968 c2bd b462 e4bd 82ce f23c
00000160: d3d2 30bc 610f 58bd 64c8 143d e9ff 58bd
00000170: 668b 45be e8a1 b03b d11b 1c3d e4d7 03bd
00000180: 4e7a 143d cd19 bd3d e5e7 b13d a7a1 01be
00000190: 925a 473e 40f8 cd3c b613 09be 9b5d a33d
000001a0: 26d6 11be 9687 17be ad29 8a3d 80c2 a6bd
000001b0: c59a 0f3b 4e3a 15be 2f25 12be 025f ab3d
000001c0: 3df1 82bd 05cc 183d 4c52 a53d b13a 893c
000001d0: 481e 10bd d343 07be 4e45 dc3c 5202 283d
000001e0: ace0 b43d e74c 3a3e 7847 e7bd 28cd 8f3c
000001f0: 65b3 c23c 4d61 7e3d 931d ce3d c8af 45bd
00000200: 31cb 313e 7970 24bd a0d4 10bd 8ea2 953d
00000210: fbeb e2bd be36 473e aa48 673d 51a7 093d
00000220: d6e6 413d b110 21be f3ed 32be 4e22 3c3e
00000230: 9d1a ebbc 4b86 51bd a1d7 e83c 344f 8dbc
00000240: 74c6 08bd f59b 303d e3cc d93d 526b cd3c
00000250: d85f 833d b8d9 d8bd 6d11 633c 6bde 003d
00000260: f5aa a33d a052 0abe c763 403e 300d 003d
00000270: c8a8 e2bd ba6f 5d3d 841a f43b 6dc6 f8bd
00000280: 83fe 1ebd 76d4 e33c e74c 363e 11bc ff3c
00000290: 7400 f93d da7f 543d e3a7 21be 8d45 83bd
000002a0: 54ba a73d 3966 66bc f2be b1bd edab 4cbe
000002b0: 3549 fb3d 18a4 d6bd 93ca b4bb 8081 973d
000002c0: 88d8 273e cb65 0f3d 57af 403e d781 903d
000002d0: 831f 24be 0d8b 083c 5db3 113e 2b9e 8ebd
000002e0: 0673 8abc 40be cdbd c05b 52b9 7240 d4bd
000002f0: 1ad3 cdbd db69 263d 2781 9bbd 5f5d 273e
00000300: 82ba 333d f313 72bd c14e 883d f939 06bd
00000310: 1ae5 cbbd e7fc e7bd 2855 ee3d 6116 383e
00000320: bce1 91bd 395b 8abc 1b85 f0bd 38b7 d93d
00000330: 2141 a2bd 065a a6bd 4ec0 28be 5e56 c7bc
00000340: 7a97 3d3e cdd0 963d 19d8 ffbb 8897 4abc
00000350: 1cd8 02bc 63a2 aebd f25f 023e bb4c ba3d
00000360: e018 4a3d 779c 8ebd c9dd ebbd 6bcc 6cb9
00000370: 6eb8 17be 0eef 2dbb cf83 d33d fb92 bbbd
00000380: eb29 ecbd 8b56 41bc b542 3e3d 2d3b 3ebe
00000390: c9a7 063e 1d17 303e 6dda 463d 8bc1 2c3d
000003a0: 4d0c 4abd f01a 95bd f297 c2bb bcf5 7ebd
000003b0: faad b33d 3b8e c33c 3b7c b5bd 6e7b 043d
000003c0: 58fc ec3c 0d30 c83d 6818 f23d a673 b13d
000003d0: fec7 8fbd 4a86 72bc ec59 433d f6b8 73bc
000003e0: 9f8f 693d 09a8 1abd 3567 b3bd 99e6 af3c
000003f0: 355f d7bc 1982 183e 2cb2 233c 9cee 0cbd
-0.10722421 -0.0207367 -0.0030697458 -0.029816745 -0.11436205 0.0022945313 0.029630024 -0.07563556
0.1308252 0.010261584 -0.047784835 0.09943164 0.018348508 -0.032549337 0.016480923 0.14072482
0.057673573 -0.08276227 -0.049899414 0.04643446 -0.05594703 -0.016670186 0.05553227 0.12619802
0.062750615 -0.0865366 -0.05882356 -0.0435439 -0.119333684 0.061345898 -0.14070134 -0.012564959
0.046702653 -0.070450194 0.0638335 -0.078037076 -0.0018355404 0.10386463 -0.1453569 -0.089708276
-0.15072124 0.017625533 -0.04517949 -0.09589912 -0.07613014 0.074463 0.0005670452 0.027275912
0.03130172 0.0986901 0.0746762 0.09408135 0.040814135 0.043118954 0.04850039 0.12562892
-0.004955741 0.167949 0.05718902 -0.078933105 0.07073561 0.10699823 0.017104508 0.0007349569
-0.11252466 -0.07354562 -0.039411217 0.045949224 0.008090699 0.06595462 0.04939125 0.059199728
-0.008802418 -0.07489868 0.0192554 -0.011384657 0.019194689 -0.11640994 0.043709107 0.08187212
-0.042623732 -0.002457528 0.11524241 -0.043678336 0.031692076 -0.09492547 -0.111516386 0.029639486
-0.010792452 -0.05274904 0.03632392 -0.05297843 -0.19291458 0.0053903945 0.038112465 -0.03218831
0.03624945 0.09233437 0.086868085 -0.12659322 0.19468144 0.025142789 -0.13386425 0.07976838
-0.14241847 -0.14797816 0.0674623 -0.08142567 0.0021912318 -0.14573023 -0.14271997 0.08367731
-0.06393669 0.037303943 0.080723375 0.016751619 -0.03518513 -0.13209467 0.026888516 0.041017838
0.08831915 0.18193398 -0.112929285 0.01755388 0.023767183 0.062104512 0.100642346 -0.04826334
0.17362668 -0.040146325 -0.035359025 0.073063955 -0.11080166 0.19454476 0.056465782 0.03360683
0.047339283 -0.15729024 -0.17473583 0.18372461 -0.028699214 -0.051153462 0.028423132 -0.017249681
-0.033392385 0.043117482 0.10634782 0.025075588 0.06414765 -0.105884016 0.013859135 0.031462114
0.07991592 -0.13508081 0.18788062 0.031262577 -0.11067349 0.05406163 0.00744945 -0.12147222
-0.03881694 0.02781127 0.17802773 0.031217607 0.121582896 0.05187974 -0.157867 -0.0640975
0.08189836 -0.014062458 -0.08678998 -0.1998746 0.122698225 -0.10480517 -0.005517313 0.07397747
0.16391194 0.035009187 0.18816887 0.07056015 -0.16027646 0.008333934 0.14228578 -0.06963762
-0.01690055 -0.10046053 -0.0002006134 -0.103638545 -0.1005003 0.040628295 -0.07592993 0.16344212
0.04387904 -0.059101056 0.06655646 -0.03277013 -0.09955807 -0.11327534 0.11637336 0.17977287
-0.071231335 -0.016889201 -0.11744138 0.10630649 -0.079225786 -0.08122639 -0.16479608 -0.024333175
0.18514815 0.07364044 -0.0078077433 -0.012365229 -0.007986095 -0.085270666 0.12731913 0.090966664
0.04934013 -0.06963437 -0.115169115 -0.00022582865 -0.14816448 -0.0026540193 0.10327875 -0.09158894
-0.11531433 -0.011800419 0.046450336 -0.18577261 0.13149942 0.17196317 0.04854815 0.042176764
-0.049328137 -0.072805285 -0.0059385234 -0.06224607 0.08773418 0.023871532 -0.08861586 0.032344274
0.02892892 0.0977479 0.118210614 0.08664636 -0.07020567 -0.014802525 0.047693178 -0.014875641
0.057021733 -0.037757907 -0.087599196 0.021472262 -0.026290515 0.14893378 0.00999121 -0.034407243

lstm.bias_ih_l0 f4 [256]
00000000: bc21 2e3a 076b 263e f303 903c 820f b23d
00000010: 9389 bb3c 79eb cc3c 7532 fabc bcc4 bc3d
00000020: 39f2 c43d 0d9d 19bd a927 98bc d391 55bb
00000030: 4c71 923d 0547 0d3e 7ce7 3b3e ccf2 f73d
00000040: c8d5 cd3c 3a34 093e 8778 d63d 9468 fc39
00000050: 78ab a83c 9945 b03d ca4c a53d e483 e63d
00000060: 029f 403e 2328 1b3e ebd9 61bd d3a9 c23d
00000070: ee88 fa3d 50bc 843c 8764 333c f609 fc3d
00000080: 3de7 51bd e1aa d33d 1f65 cdbc 96a0 77bd
00000090: 7d7a 833d e5ab a73d bce6 3c3d 0327 2dbd
000000a0: 3960 3cbc 3d37 8b3d 0b8e 013e 2546 873d
000000b0: 2206 613d 5f7e b2bd eabc 313d bc9d d13d
000000c0: b4f2 dc3d 093f a13d f949 9d3d af06 9d3d
000000d0: ffd7 9d3c 1af8 3e3c cf15 003e 3935 f5bd
000000e0: e205 343d 6ab5 a2bc 4c16 823c b45c 0c3e
000000f0: a3c0 593d 342f 883c d99a 223e 4d7f b83d
00000100: 6e72 9dbd 04f5 0f3e e208 113e 2903 ca3d
00000110: 19b1 cf3d e0ea bc3d cb29 b0bd 9376 3ebd
00000120: 8708 1d3c 99fb c63d 600e 913d 029b 883d
00000130: d4b3 4fbd f67c 253d 9cd8 17bc 9dfb adbd
00000140: d43a d5bd 6098 673d 64d6 70bd 931e 743d
00000150: 1ab4 fcbc 4173 ffbc f454 35bd 8ddd b5bd
00000160: c3aa 253d fd0f 2c3d 9a4a 6e3d 38be abbb
00000170: d7ee 0b3d 81db be3d 4fda 253d caf0 c93d
00000180: e9d9 823d 9349 1b3d 94b4 9b3d 5ed1 f83d
00000190: ce34 7abd d217 a43b 08b2 a0bd d7d4 2d3e
000001a0: 6b62 95bc f1ca 063e fec7 97bc 0156 1a3e
000001b0: 32fb dfbc f0c8 09bd d380 233c 636a 893c
000001c0: 2ea0 103d c81e 273c 08a6 fb3d 4691 413d
000001d0: 41de 9bbc 8c96 aa3d 772d 1c3c 6f8b d63a
000001e0: e7dc 31bd a0de cd3c 2a15 6fbd 6702 703c
000001f0: a404 dc3d 1214 2dbd 0535 88bd ab60 ea3d
00000200: 1575 80bd 02f4 ffbb 4d9a 273e 3a2f 71bc
00000210: 2c24 32bd 5c71 003e c06a e3bc 17bc 00be
00000220: c9e9 903c 8df2 babd ba3e 77bd 8e47 793d
00000230: 4342 e8bd 3201 aabc 0a1f 9b3d 9b67 6fbc
00000240: 326e e43d cb9b c93d e2c3 4b3c 30b3 433d
00000250: 6f02 1a3e e4fb cbbc e686 f43d 377d cf3d
00000260: 54f0 d03d d0ae e03c 013a 6d3d d67d c63d
00000270: 940d 61bd dcfa 833d 5d10 0dbd 9aa7 a1bd
00000280: b4a2 5dbd b838 82bd 47ff a03d 6591 b4bd
00000290: dac1 4cba 3634 043e fb93 9ebd a0bc f23d
000002a0: 5a4c 01bd 8a78 d1bd e262 9b3a fb5d 6fbd
000002b0: 6074 643c d154 02be 15db 0bbe ed77 a43d
000002c0: 9007 f1bb aa12 deba 6969 063e 76bb 1d3d
000002d0: 7f4b 01be 57f7 93bc 28f1 71bc 4c0c 2c3d
000002e0: 0bcb 063e 8603 573c 09fe b9bd 8b29 4cbd
000002f0: 4b78 d2bd 1e94 093d 0ebd c43d fbec 0b3d
00000300: d960 6fbd 25b0 d53d b383 913d 2a75 833d
00000310: b88e 013e a15b bd3d 8f40 0f3e 0caf 9f3d
00000320: 121b 343e 43eb f63c 9990 503d 3af6 14bd
00000330: f23a 883d bab0 113c 4631 7a3b 12a9 b3bc
00000340: cc57 5b3c 85a5 063e c59d 73bd 9f11 3f3e
00000350: e8d7 63bc 1239 99bd bc58 e83d a6cb f63d
00000360: 2ac0 a63c 30e8 223e 5ee5 1fbd f4ea 16bd
00000370: ca8c 9ebc b362 303d df07 f33d e005 a7bc
00000380: d585 973c ce9a 033d 36d0 c83d 63b0 b23d
00000390: 7083 d33d a4fe 853d d087 8ebd c05f e23d
000003a0: 1202 c93d a376 6f3c 7450 13bb deff aabd
000003b0: 4ca6 103e df30 9ebb 9c5e 87bd dd95 8bbd
000003c0: 95d7 6b3d 0833 87bb f0d5 f23d 67b2 963d
000003d0: 0014 2cbd 944e 9eba 1bd8 1c3e 5645 44bd
000003e0: ab41 233e de08 a9bd c721 8dbd 68ea e63b
000003f0: 445b 2dbd cca5 0b3e 6c74 973d 1538 273e
0.00066426 0.16251765 0.017580008 0.08694364 0.022892749 0.025014626 -0.030541638 0.092172116
0.09616513 -0.03750329 -0.018573599 -0.0032588139 0.07150516 0.13796623 0.18350023 0.12106857
0.025126353 0.13398829 0.104722075 0.00048143102 0.020589575 0.08607025 0.08071287 0.11255625
0.18810657 0.1515203 -0.055139463 0.09505048 0.122331485 0.016203076 0.010949261 0.123065874
-0.051245917 0.10335327 -0.025072632 -0.06045588 0.06419847 0.08187083 0.046118483 -0.042273533
-0.011497551 0.06797645 0.12651841 0.06605176 0.05493749 -0.087155096 0.043393053 0.102351636
0.107884794 0.07873351 0.07680125 0.076672904 0.019268034 0.011655832 0.1250832 -0.11973042
0.043950923 -0.019861896 0.015879773 0.13707238 0.05316223 0.01662407 0.15879382 0.09008656
-0.07687841 0.1405831 0.14163545 0.09863884 0.101412006 0.09224486 -0.086017214 -0.0464998
0.009584553 0.09715957 0.0708282 0.066701904 -0.050708607 0.040402375 -0.009267952 -0.08495257
-0.10411611 0.0565418 -0.05879821 0.05959947 -0.030847598 -0.031182887 -0.04427047 -0.08880148
0.040446054 0.042007435 0.058176614 -0.0052411817 0.034163322 0.09319211 0.0404914 0.0986038
0.06389219 0.037911963 0.07602802 0.121493086 -0.061085515 0.0050077224 -0.07846457 0.16975723
-0.018235406 0.13163354 -0.01852798 0.1507187 -0.027341459 -0.033638895 0.009979445 0.016774362
0.03530901 0.01020021 0.12287527 0.047257684 -0.019026877 0.08329496 0.009532324 0.0016368459
-0.04342356 0.02513057 -0.058369793 0.01464901 0.10743073 -0.04225547 -0.06650738 0.11444219
-0.062723316 -0.0078110704 0.16367455 -0.014720732 -0.043491527 0.12543243 -0.027760863 -0.1257175
0.017689602 -0.09128294 -0.060362555 0.060859255 -0.113407634 -0.020752523 0.075742796 -0.014612104
0.111538306 0.09844168 0.012436839 0.04777831 0.15039991 -0.024900384 0.11939792 0.10131305
0.10202089 0.027427107 0.057916645 0.0969197 -0.05494459 0.06444332 -0.034439433 -0.078932956
-0.054110244 -0.063584745 0.0786119 -0.08816794 -0.00078108686 0.12910542 -0.07743069 0.118523836
-0.031566955 -0.10228069 0.0011855031 -0.058439236 0.013943762 -0.12727667 -0.13657792 0.080306865
-0.007355638 -0.0016942818 0.13126148 0.038508855 -0.12626456 -0.018062277 -0.014766969 0.042003915
0.13163392 0.013123399 -0.090816565 -0.049844306 -0.1027685 0.03358852 0.09606372 0.03416155
-0.05844197 0.104339875 0.07105198 0.06418832 0.12652099 0.092459925 0.13989471 0.077970594
0.17588452 0.030141478 0.05091915 -0.036367632 0.06651868 0.008892233 0.0038176342 -0.021931205
0.013387632 0.13149078 -0.059476633 0.18659066 -0.0139064565 -0.074815884 0.1134505 0.120505616
0.020355303 0.15908885 -0.0390371 -0.036845163 -0.019354243 0.043062877 0.11866736 -0.020388544
0.018496433 0.032130055 0.09805338 0.08725049 0.10327804 0.065427095 -0.06959498 0.11053419
0.09814848 0.014615688 -0.0022478374 -0.08349584 0.14125937 -0.004827603 -0.06609842 -0.068156935
0.057578642 -0.0041259564 0.118572116 0.07358246 -0.04201126 -0.0012077861 0.15316813 -0.047917686
0.15943019 -0.082536444 -0.06891208 0.0070469864 -0.042323366 0.13637465 0.073952526 0.16329987

lstm.bias_hh_l0 f4 [256]
00000000: 1408 70bd 7b1b 313d fde6 043d 8e6d e4bc
00000010: 8e4f 3d3d 2e96 11bd 6845 7bbd c8de e63d
00000020: 4cf4 0e3d d2f8 babb d751 85bd 8bf1 113d
00000030: 9eb2 a63d de0d 193e 463c febc 3843 943d
00000040: 09aa 8e3b 3bce 123e e651 9b3d b8da 8b3d
00000050: 9bd6 5e3d 3144 01bd ba70 b53d 34cf 173e
00000060: 50f4 5d3d d721 8ebd 1734 8b3d 8165 50bc
00000070: 0c11 213d 7a71 d13c 1dae 86bd 20b4 2d3e
00000080: 9b3a 533a f114 b2bc 6634 a33d 311f c2bd
00000090: e225 b73d 9f06 003d 6fc3 0c3e 9b4a 253d
000000a0: e2c2 963d 1705 1e3d 569f aabc 4cba 01bc
000000b0: 7bf7 88bd 4de6 0a3e ee9e 073e 597c 57bd
000000c0: 76c3 193e b3a9 84bd dbf9 463d 9a12 043d
000000d0: 45ec 903d 7a08 cbbd 02e3 7e3d cf46 91bc
000000e0: 76d6 d33d 2117 013e 0935 2a3c 5946 cb3c
000000f0: dee6 0b3d 9916 08bd 73a9 073d 6aed 103e
00000100: 2bb4 15bd afb1 a53d d598 22bc f610 223e
00000110: ad72 b4bd ac29 483d 77c4 0a3d 9c24 003e
00000120: 8c50 41bd 47f7 90bd 7431 8e3d 84ff 29bd
00000130: f414 083e c498 e93d 28c6 273e c5a4 113e
00000140: 0fda 2c3d 9642 843d d73a 62bd cfd5 d73d
00000150: 0c2c fe3d 222a c2bd 186c a83d b7a1 0b3e
00000160: 2df9 ed3d fad0 053e 63e7 1f3e 2544 083e
00000170: 2a3f 8abd 1502 b5bd 434b 163e 472e 77bc
00000180: 297c 193d e613 463d eeda cf3d 2249 a7bd
00000190: 8274 c03d fe48 013d 7add 083e 5079 913c
000001a0: 6e61 713c d662 dd3d 56b5 923d 7bed 5abc
000001b0: 02fa 1e3d 8194 d33d b1c7 173e 60e2 063e
000001c0: 41c2 47bd e628 103d a421 583d 4210 3fbd
000001d0: f779 b3bd 2dbd 993c 561e a5bd 646e cd3d
000001e0: 987f 963d 2bde 063c 35be fcbc 5be8 023e
000001f0: 6a13 02bd 627b a2bd 29c2 39bd 7381 5ebd
00000200: 0d5e f83d 309f 0ebe e6fe 603d 748f d1bb
00000210: ec9d 203d 530f cbbc 87e1 b03d 0ff1 2a3c
00000220: 9586 d0bd edbc d9bd 2ed3 ffbd 065a 013b
00000230: 2a5a ffbd 530f f2bd d2a1 edbd d38f 8d3d
00000240: 6619 e73d 893c fa3d 8009 f83d 74e8 eabd
00000250: 24af 123e 133e d6bd 4cb2 c2bd 4113 013e
00000260: b366 193c e73d 9c3c 2c29 063e 5004 043e
00000270: b0b7 52bd 53aa c3bd eb64 823d e119 0bbd
00000280: cbf0 ae3d 650a f23d 4393 6ebd e8ed 1dbb
00000290: 7270 2ebb 4722 c9bb 1227 e5bc 4c06 b03d
000002a0: 39bf 953d 3645 d3bc 46d2 003d 6455 03be
000002b0: 99c6 923d 9c1e 1abe 4436 9ebb e923 cf3d
000002c0: cae3 b13d 1121 c63d d6dc 823d 9427 dc3d
000002d0: 0b55 4abd ea7f cbbd f6cd 5f3d 4346 863d
000002e0: 9d45 033e df38 133d 0f0f acbd fc96 8b3d
000002f0: 9569 d2bd 065f b9b9 7bc7 14bd 7b55 153e
00000300: 1082 bdbd e7ed 1e3e 8bec 223e dcff 14bd
00000310: c97b eb3d 5ffd 883d 1b34 89bd 2bc6 eb3c
00000320: f751 b0bc ee72 393d cb14 213c 8160 f63d
00000330: 0733 f23d 687d 473e 9564 643d 79ed 38bd
00000340: 2b6b a4bd 20a6 083e 1e61 89bd 6032 84b8
00000350: 1c4a b4bd 4a1b dc3c 4e8a 433e f442 983d
00000360: b0fd 0dbd 671b be3d 0d20 9f3d 6b0b 363c
00000370: e1b4 3d3e 9906 acbd dbe3 d03d a707 023e
00000380: 1661 6a3d e634 753d c048 63bc 84c6 66bd
00000390: 6355 28bd 1ada 413d 7326 963d 24f1 133e
000003a0: f750 5bbd bda3 2c3d 2546 d53d b44c ee3d
000003b0: 5d07 2f3d 9e2a 0c3e 8d23 17bc 4016 e8ba
000003c0: 7efb ff3d 58bd a23d c63a 453d fcd3 013d
000003d0: 6b6e 9bbd e168 1d3d 3f60 063d 32f8 32bd
000003e0: 1fde a03d 0f9d 443d f9eb b7bd 01d3 3e3e
000003f0: 6a11 1e3e a19c cc3d ef76 143e 01f3 0abd
-0.058601454 0.043239098 0.03244685 -0.027884271 0.046218447 -0.035543613 -0.061345488 0.11272961
0.03490095 -0.005705931 -0.0650975 0.035630744 0.08139537 0.14946696 -0.0310346 0.072393835
0.004353766 0.14336483 0.0758398 0.06828827 0.054403882 -0.031559173 0.088593915 0.14825135
0.054188073 -0.06940048 0.06797045 -0.012719513 0.039322898 0.025566805 -0.06576178 0.16963243
0.0008057744 -0.021738501 0.079689786 -0.094786055 0.089427724 0.031256314 0.13746427 0.040354352
0.0736139 0.038579073 -0.02082793 -0.007917952 -0.06687828 0.13564415 0.1324422 -0.05260882
0.15015969 -0.0647768 0.048578124 0.032244302 0.07076315 -0.09913726 0.06222821 -0.01773396
0.103436396 0.12606479 0.010388621 0.024813818 0.03415572 -0.033224676 0.033120584 0.14153066
-0.036548775 0.08090531 -0.009924133 0.15826783 -0.08810935 0.048867866 0.03387877 0.12513965
-0.047195956 -0.070784144 0.06943026 -0.041503444 0.13289243 0.11406091 0.16384184 0.14223011
0.042200144 0.06458013 -0.055231895 0.10538828 0.12410745 -0.094806924 0.08223742 0.13635908
0.11619792 0.13068 0.15615611 0.13307245 -0.06750329 -0.08838288 0.14677148 -0.015086717
0.037471924 0.04835882 0.101491794 -0.08168246 0.09397222 0.03156375 0.13365737 0.017758042
0.014732702 0.10809867 0.07163493 -0.013362284 0.038812645 0.10331059 0.1482227 0.13172293
-0.04876924 0.035195254 0.052766457 -0.046646364 -0.08763497 0.018766964 -0.08062427 0.10030821
0.07348555 0.00823168 -0.030852417 0.12783949 -0.031756796 -0.0793369 -0.04535118 -0.05432267
0.12127314 -0.13927913 0.05493059 -0.006395275 0.039213106 -0.02478758 0.08636766 0.010433449
-0.101819195 -0.10631738 -0.12491451 0.0019737496 -0.12468369 -0.11819329 -0.116031304 0.06912198
0.11284141 0.122185774 0.12111187 -0.11470118 0.14324623 -0.104610585 -0.09506664 0.12605001
0.009362864 0.019072486 0.13101643 0.1289227 -0.05144471 -0.09553971 0.06366905 -0.033960227
0.08542021 0.11818389 -0.05824591 -0.0024098102 -0.0026617316 -0.0061381194 -0.027972732 0.08594951
0.073118635 -0.025789838 0.031450532 -0.12825543 0.07166786 -0.15050739 -0.0048282463 0.10114271
0.086860254 0.09674276 0.06389777 0.107497364 -0.04939751 -0.09936507 0.05463978 0.0655637
0.12819524 0.03594291 -0.0840131 0.06815907 -0.102740444 -0.00035356748 -0.036323052 0.1458339
-0.09253323 0.1552044 0.15910546 -0.03637682 0.114982195 0.06688952 -0.066993915 0.028781017
-0.021523459 0.04527562 0.009831618 0.120301254 0.11826139 0.19481432 0.055759985 -0.045148347
-0.08028253 0.13344622 -0.06707977 -6.3036336e-05 -0.08803198 0.026868481 0.19095728 0.07434645
-0.034665763 0.0928257 0.07769785 0.011111121 0.18526031 -0.08399696 0.1019971 0.12698232
0.057221495 0.0598649 -0.013872325 -0.056341663 -0.041097056 0.04732714 0.07331552 0.14447457
-0.05354401 0.04214834 0.1041377 0.11635724 0.04273163 0.13688132 -0.009224785 -0.0017706826
0.1249914 0.07946271 0.048151754 0.031696305 -0.0758942 0.0384301 0.03280663 -0.04369373
0.07854866 0.048001345 -0.08980555 0.18635179 0.1543633 0.09990812 0.14498495 -0.033923153

dense1.weight f4 [64, 64]
00000000: 2bdc 7d3d cde8 0f3d f73c 823b 8983 58bd
00000010: 6d7c fdbd 10db 9e3c 823e b3bc ea01 9a3d
00000020: 8076 8b3c c949 02be bfb1 54bd 481b 673d
00000030: baba 04be 153a 903c eddd e53c ebbe d53d
00000040: a8e9 ea3d 756f 2f3d a312 243d 1fc5 6bbc
00000050: e6f1 a33d c127 0abe 1215 bb3b 601a 46bd
00000060: 8557 1b3d 8c3f b9bd f232 933c f959 e4bd
00000070: 8459 8fbd d768 d73d f9d5 b83d 4f45 753d
00000080: 3687 e03d bf8c c7bc 9dce 083a d990 f4bd
00000090: 1427 263e b6dd d03c 27c6 6dbb 1c90 30be
000000a0: 5a20 0e3d 8388 10be d623 3ebe 042e 893c
000000b0: fe6f 0c3e ec30 d9bd dd67 e2bd dcfc 95bc
000000c0: 1b11 16bd bb4a 99bd 7788 673d b22a 0c3e
000000d0: 739c 02be 855d 5d3d 2928 893d 55d5 de3d
000000e0: 4f31 953c dc7f eebc a556 b5bd 23e7 0fbe
000000f0: 74a7 f4bd 9029 dbbd 68fe f4bb 4fb3 363d
00000100: d5da fe3c 3467 e2bd 2731 0f3d 631e b53d
00000110: 1f78 69bd 38c2 a9bd 0709 953c 94c6 713d
00000120: 5122 f33d 089e 17bd 4473 38bd 21cc 253e
00000130: 2d9b 11be 0f91 a53d 43a2 1ebe 15b6 b3bc
00000140: b715 dd3d 574f 4abc a634 823d 0680 c43d
00000150: 12bf 823d 48f8 913d b1b1 8c3d 5b8e 1c3e
00000160: 2615 113d 2dec 15be f27d 843d 9ab4 083e
00000170: 6b3c f9bd fef0 67bd d6ec 7a3d 5b99 103e
00000180: 09f9 bf3c 1aa5 5e3d 3166 22bc 5631 023d
00000190: bd12 1abd 629c 13bd c439 cfbd 5131 21be
000001a0: 5ecc dfbd 4dcc a13d becb 9cbd 0285 c5bd
000001b0: fd87 77bd 8caf 133d 579b 7cbd f700 3d3d
000001c0: b9ee 3c3d 42cb bebd 57e5 b33d edfc bebd
000001d0: e4b7 4bbd d4c6 f6bc 07ae 0a3e c6f6 d8bd
000001e0: 57e0 8d3d 51aa 233a 8843 263d acf2 1f39
000001f0: da91 a6bd fc4f efbc 906a 313e c39d cabc
00000200: fbe8 63bd a21d c23d 8bb1 a2bc 712c 2fbe
00000210: ece1 983d 64be d9bb 5cb4 ad3d 1a2f 9f3c
00000220: 790c c03d b50d 8fbd ae6f c03d f07d e3bc
00000230: 016c e23c a865 af3a 7add 063e 5a1a 8bbd
00000240: e65f 41bd 538f 613c e188 243d 5e43 ac3d
00000250: 27d9 bbbd 9816 92bd f9be 1dbe bbb1 2b3d
00000260: 6889 003e 3f66 c2bc ab2c d63c ef45 8abc
00000270: 8142 d3bb e15d ed3d 0840 92bd da67 363b
00000280: 4add 2ebd 7f4c 8a3d 1972 1b3d fd47 d8bd
00000290: 3cf8 02be 578d 87bd 9220 58bd e4ab 0a3d
000002a0: b1b3 15bd 070e c43d 831f 3e3d 4946 ae3c
000002b0: da22 1d3d faa7 96bc c9ec 8cbd 8b76 843b
000002c0: 985f 4a3d 298f c8bc 44ca 3d3c bcdf 3fbd
000002d0: cf76 cebd ddb1 d5bd f8d5 fe3c d346 253c
000002e0: 501e c93d 9c41 803d 247d e63d f29f 3d3d
000002f0: 49c7 173c bbdb babd 1ec8 02be cfb4 283d
00000300: 54f6 2c3d e263 c1bd d0f7 c2bd d0df 32bd
00000310: bcff f93d 487f 973c 563c 9e3d 3067 28bc
00000320: 8090 e9ba 24b2 81bd 8436 393d c622 cf3d
00000330: f07c 963d a62e 97bd e0d5 6abc a410 b73d
00000340: 3297 b5bd b0b7 d43d a035 353c 1496 703d
00000350: 883e 02bd ec33 96bd 9091 36bd 3050 a83c
00000360: 807f d6bb 367b b73d 84fb 383d 3610 c0bd
00000370: 4415 6cbd a044 073d 9af2 dd3d 6c0f 02bd
00000380: 5893 e83c be7b debd 58a4 d7bd 80ed c03a
00000390: e0c7 f6bd 4469 b6bd 4058 8b3c 2022 1f3c
000003a0: 7e7b 85bd 583c e73d 2e28 c1bd 38a9 b93d
000003b0: 92b9 89bd 009a 8a3c 4a44 b53d 2860 fd3d
000003c0: b408 e3bd d6ea 97bd fa11 efbd 3809 943d
000003d0: c48a e8bd c832 fb3d 6202 d5bd 20cf 99bd
000003e0: 68b0 b0bd 68fa c23c 20d6 27bc 44de 783d
000003f0: 100f 2e3c f067 b6bc b81e 56bd f014 c4bc
0.061977547 0.035134126 0.0039745527 -0.052859817 -0.12377248 0.019391567 -0.021880392 0.07519896
0.017024279 -0.1272346 -0.051927324 0.0564225 -0.12961856 0.01760582 0.028059924 0.10436805
0.11470348 0.042830903 0.040056836 -0.014390259 0.08005123 -0.13491727 0.005709299 -0.048364997
0.037925262 -0.09045324 0.017968629 -0.111499734 -0.069994956 0.105180435 0.09025187 0.05988055
0.109632894 -0.024359105 0.0005218776 -0.1194169 0.16225845 0.025496345 -0.0036281438 -0.17242473
0.03469882 -0.14114575 -0.18568358 0.016745575 0.13714597 -0.10605034 -0.110549666 -0.01830905
-0.036637407 -0.07484957 0.056526627 0.13688162 -0.12754993 0.054044265 0.06697113 0.108805336
0.018211989 -0.029113702 -0.08854417 -0.14053015 -0.11946002 -0.10701287 -0.0074766167 0.044604596
0.031110207 -0.11054841 0.034958985 0.088436864 -0.056999322 -0.082889974 0.018192781 0.05902727
0.1187178 -0.037015945 -0.0450318 0.1619115 -0.14219351 0.08084308 -0.15491585 -0.02193741
0.107951574 -0.012348018 0.06357698 0.09594731 0.063841 0.07127434 0.068698294 0.1528868
0.03542056 -0.14640875 0.06469335 0.13350144 -0.12169727 -0.056626312 0.06126102 0.14121
0.023434179 0.054356672 -0.00991206 0.03178533 -0.037615526 -0.03603781 -0.1011844 -0.15741469
-0.10927652 0.079002954 -0.07656048 -0.0964451 -0.060432423 0.036056086 -0.06167158 0.0461435
0.0461261 -0.09316112 0.087839775 -0.093255855 -0.04973592 -0.030124106 0.13542949 -0.10593943
0.06927555 0.00062433357 0.040591747 0.00015253824 -0.08133288 -0.029212944 0.17325807 -0.02473343
-0.05564211 0.09478308 -0.01986005 -0.17106797 0.07464966 -0.006645011 0.084816664 0.01943164
0.09377379 -0.06985036 0.09396301 -0.027770013 0.02763939 0.0013381736 0.13170424 -0.067921355
-0.047210597 0.013767081 0.0401696 0.08411287 -0.09172278 -0.07133216 -0.15404882 0.041917544
0.12552416 -0.023730395 0.026144346 -0.01687905 -0.006447137 0.115901716 -0.07141119 0.0027832896
-0.042691506 0.06752872 0.03795061 -0.10560606 -0.12790006 -0.06618755 -0.052765436 0.033855334
-0.03654832 0.09572988 0.04641677 0.021273749 0.038363315 -0.018390644 -0.06881101 0.0040424517
0.04940757 -0.024482327 0.011583868 -0.04684423 -0.10081255 -0.10434315 0.031107888 0.010087687
0.09820235 0.06262514 0.112543374 0.046295114 0.009263822 -0.091239415 -0.12771651 0.041188058
0.042227104 -0.09442879 -0.09519923 -0.043670475 0.122069806 0.01849331 0.07726352 -0.010278508
-0.0017819554 -0.06332806 0.045218006 0.101140544 0.07348049 -0.07381944 -0.014333218 0.08938721
-0.08866729 0.10386598 0.0110601485 0.058736876 -0.031797916 -0.07334122 -0.044572413 0.020546049
-0.006545961 0.089590475 0.04516174 -0.09378092 -0.057637468 0.03302443 0.10837288 -0.03175299
0.028390571 -0.10863446 -0.10529393 0.0014719218 -0.12049842 -0.089067966 0.017009854 0.009712726
-0.06517695 0.112908065 -0.09431492 0.09065479 -0.06724848 0.016919136 0.08850916 0.12371856
-0.11085644 -0.07417838 -0.11673351 0.07228321 -0.113545924 0.12265545 -0.10400845 -0.07510209
-0.08627397 0.023801044 -0.0102439225 0.060758844 0.010623708 -0.022266358 -0.05227539 -0.023935765

dense1.bias f4 [64]
00000000: 54f4 413d cd32 39bd 85ad d03d fcbe 3fbd
00000010: f204 e9bd 0ed4 cabd 504c 6ebd d0e1 383d
00000020: 6cd5 623d 81ce d6bd c390 b53d 634b 813d
00000030: cf46 a93d 9466 4b3d b1d3 d6bc c4e1 4fbc
00000040: 4465 083c e567 84bc d806 9b3d e1f6 003d
00000050: 5e91 02bd 6ec3 07be 04bb 01be 02d3 96ba
00000060: 5b66 afbd 6e95 58bd 88e3 06bd 5e94 d6bd
00000070: cc8e fbbd 28cc a33c 8c8e 24bd 9280 babd
00000080: ab78 aa3c 120d 6bbd 1458 8e3d d1ec 7f3d
00000090: e1ae 9bbc a57e d03c ee04 f53d 1249 8a3d
000000a0: a272 f33d c6ea c5bd c1c2 0d3d 3c89 dfbd
000000b0: a218 b6bd e6a7 95bd 77ef 5fbb 70f5 72bd
000000c0: c754 a13d d206 ffbd e4cf 903d 9e99 cd3d
000000d0: 978c 56ba 918f a53d 185d a9bd c9d1 a83d
000000e0: 2613 163a dd96 99bc d666 943d 4b7c 12bc
000000f0: 444a bebd 849c cebd d6c1 2dbd ce5b 663d
0.04735215 -0.045214463 0.10189346 -0.046812996 -0.11377896 -0.099037275 -0.058178246 0.045137227
0.055379316 -0.10488606 0.08865502 0.06313207 0.08265459 0.049658373 -0.02622399 -0.012688104
0.008324925 -0.016162822 0.07569665 0.031485442 -0.031876914 -0.13258144 -0.12668997 -0.0011506977
-0.08564445 -0.052876882 -0.032931834 -0.104775175 -0.12283096 0.01999481 -0.040175006 -0.09106554
0.020809492 -0.05738551 0.06950393 0.062481705 -0.019004287 0.025451014 0.11963831 0.06752218
0.11887099 -0.0966392 0.03460956 -0.10914847 -0.08891417 -0.07307415 -0.0034169832 -0.0593161
0.07877498 -0.12452473 0.07070902 0.10039066 -0.00081844017 0.08084024 -0.08269709 0.08243138
0.0005724899 -0.018748695 0.07246177 -0.008940767 -0.09291509 -0.10088447 -0.042421184 0.056239896

dense2.weight f4 [4, 64]
00000000: a720 bcbd 7aeb 3e3d c97f 76bd 64fb 463d
00000010: 75c4 80bd be32 ffbd cc37 19bd 1db0 063e
00000020: c1d3 0c3e ced0 8a3d e830 1ab9 a930 a03d
00000030: 4812 833d 8830 463d eef0 863b 3f12 ab3c
00000040: 3bc6 1abe 00e5 44bb 5ec7 5d3c 5bf3 493b
00000050: 9a91 07be ac4b 9cbd bbe9 acbd 075d d6bd
00000060: 25ed 3ebc 111b febd 778b d4bb 0699 9dbd
00000070: d889 0d3d 5e61 6cbd c0d2 24bb d380 0abd
00000080: 62af 1abe 6d94 d33c 1129 303e c1e8 073d
00000090: a046 2b3e a608 9c3d cd04 3dbd fdbb 3d3d
000000a0: 9d23 143e 77ff 143d 7746 123e 50b5 b6bc
000000b0: b09e bcbc e683 c9bd 2fc5 a23d 19a7 c0bd
000000c0: 95a3 f5bc bd80 653d 7c85 3bbd d2ae c83d
000000d0: beb0 0c3d 08cc 04be 6f51 073d 0e89 3c3b
000000e0: c84b afbd dfc9 fc3d 0e8d c9bd 8bb2 ce3d
000000f0: 8044 7dbd 08ce b6bd 5701 b23d 4d2e 2b3e
00000100: a6f7 1dbd 96ac cebd a428 28ba f674 853d
00000110: 18cc ccbd cce5 9b3d f0d4 94bd 583e ddbd
00000120: 717b 2cbd 4c67 b43a 7b86 83bc 656b 7c3d
00000130: 8e83 1dbe 50fe aebd bbcb f6bd dc6f 09be
00000140: d510 213e d841 783d 02a0 0ebd 0319 90bd
00000150: 7e7b 973d 235b 85bc ee28 f3bd 4775 633d
00000160: e932 c3bd c0e2 f03d 3ea5 30bc 7817 c33c
00000170: 023b f7bd 50ae 2f3d 926f b4bd d937 dc3d
00000180: e4a8 183e cd1b 13be 5eb8 d8bd 92a6 06be
00000190: 1b54 c6bd 5966 783d 5cc6 07be 1690 41be
000001a0: 4e29 10be e6cb 833d b281 41be 360d cabd
000001b0: d87e 4fbd 9c95 37bd a363 d3bd 0cc0 babd
000001c0: 86a9 d53d cbf3 94bd 006a 2abe 5b33 0ebe
000001d0: 5e65 09bc 9e74 f83d 4827 313c da8d 873d
000001e0: a2f9 a0bd e58f 8f3d 8e11 d8bb d24f 10be
000001f0: f01f 85bc 1f6e 31bd 488f 023e e75a c9bd
00000200: 7b4a 1fbe e5c1 2fbe d821 a23d 805f b33c
00000210: f225 ac3b df85 a33d 9323 333d 2821 b7bc
00000220: f7eb e5bd 2e6e b63c 57b3 2d3e 3034 fa3d
00000230: 1146 94bd df4e 433d 50b3 36be eb1d d83d
00000240: 4f5b 19be 971a 68bb 4536 693d 9b81 343e
00000250: fd08 fdbd 3e91 103d c267 c6bb 7b55 5fbd
00000260: 1ea5 41bd f167 c0bc 1c69 a7bd 209b 613c
00000270: 2017 073c e19e 8dbd f2ec f33d 397b b93d
00000280: 6a39 1e3d 3364 78bd 6376 283e 6095 303e
00000290: d9a0 ddbc cfe3 cfbc d875 633d 642a 81ba
000002a0: ce6a ec3d b4c1 d7bd 103f 3b3e bc5e 473d
000002b0: 2494 943d ccb3 d7bd c3ce a63c fb3f 6e3b
000002c0: d26a 72bd 6360 7a3d 8a2a c43d b21e 1bbd
000002d0: 4463 383e 3e0f 84bd 82a8 c53d 94ce 26be
000002e0: ca4a 373d 6001 ccbc efeb 353e aa23 973d
000002f0: 08cb e8bc 6bdd be3d 406d ba3b b9c4 063e
00000300: 4557 3a3d f239 933d 7f42 3abd c20b e63d
00000310: 6f47 68bd a420 0b3d de71 ddbd d5c3 cf3c
00000320: 2e39 e4bd ece2 1b3d eeaf 09be c72f fbbd
00000330: 5f59 183e 4ea0 c93d ddf7 cc3c 257b 21bd
00000340: cba8 9abd 7351 fb3d 0a1b d3bd 1e85 0bbe
00000350: ad4c 02be 5377 b43d ff32 4b3d f56e dbbd
00000360: f0ea 553d ee7e 1dbc d485 c0bd 800b a6ba
00000370: ca28 c13d 17b0 03be 0af9 cbbd efc3 bfbd
00000380: cccd d43d 4b3e fe3c 720a f0bd 0db1 c1bd
00000390: 7f59 9ebd 2906 c7bb b2f4 d33d 525c 0a3e
000003a0: ee6f 6dbd 233f 613b df31 073c bb97 28bd
000003b0: 8077 18bc 442f c03d 25b9 c43c bbe4 aabd
000003c0: df23 c83d 0f8f cabd f14c 16be 1029 99bd
000003d0: 94d4 2dbe 66fa 293d 3179 43bc 7d89 1a3e
000003e0: c01a c3ba 5e7c 273e 4cac 0fbe ac6a 01bc
000003f0: 64ec bbbd 3266 20bd 898c 0cbd 6bfd 9fbd
-0.091859154 0.046611287 -0.06018046 0.04857959 -0.06287471 -0.1246085 -0.037406728 0.1315312
0.13752653 0.067781076 -0.00014704803 0.07821781 0.06399971 0.048386127 0.0041180765 0.020882724
-0.15114681 -0.0030043721 0.013536302 0.0030815217 -0.13239136 -0.07631621 -0.08443018 -0.10466962
-0.011653219 -0.12407506 -0.006486352 -0.076952025 0.034555286 -0.057710044 -0.002515003 -0.033814263
-0.15105966 0.02582761 0.17203166 0.033180956 0.1672616 0.07618837 -0.046147157 0.046321858
0.1446671 0.036376443 0.14284693 -0.022303253 -0.023024887 -0.09839611 0.07947766 -0.09406871
-0.029985229 0.056030978 -0.045781597 0.09798969 0.034348242 -0.12968457 0.033036646 0.0028768214
-0.08559376 0.12343191 -0.09841357 0.10092648 -0.061832905 -0.08926016 0.08691662 0.16716881
-0.038566254 -0.10091512 -0.00064147473 0.06516449 -0.09999865 0.0761219 -0.07267177 -0.10802907
-0.04210991 0.0013763695 -0.016055336 0.061625857 -0.15382215 -0.085446 -0.12050577 -0.13421577
0.15729077 0.06060967 -0.034820564 -0.070360206 0.07396601 -0.016278809 -0.11873041 0.055531766
-0.09531195 0.11761999 -0.010781584 0.023814902 -0.12071802 0.042890847 -0.08810343 0.107528396
0.14908177 -0.14366074 -0.1058204 -0.13149479 -0.096840106 0.06064448 -0.13259262 -0.1890262
-0.14078256 0.06435375 -0.18897131 -0.09865801 -0.050658077 -0.044820413 -0.103217386 -0.09118661
0.10432725 -0.07273062 -0.16641998 -0.13886778 -0.008385984 0.12131618 0.010812588 0.06618853
-0.07860114 0.070098676 -0.0065938896 -0.14092949 -0.01625058 -0.04331791 0.1274997 -0.09831791
-0.15555756 -0.17163809 0.079166114 0.021896124 0.005253547 0.07984518 0.043735098 -0.022354677
-0.11226647 0.022269335 0.16962944 0.12216985 -0.072399266 0.04768264 -0.1784184 0.105525814
-0.14976238 -0.003541624 0.05693652 0.17627566 -0.1235523 0.035294764 -0.0060548494 -0.05452488
-0.04727661 -0.023487063 -0.08174345 0.013769895 0.0082452595 -0.06915069 0.11910428 0.09056706
0.038628973 -0.060642432 0.16451411 0.17244482 -0.027054237 -0.025377182 0.055532306 -0.0009854552
0.11543809 -0.10534993 0.18285775 0.04867433 0.07254818 -0.105323404 0.020362264 0.0036354053
-0.059183903 0.061127078 0.09578426 -0.03787107 0.18006617 -0.0644822 0.09651281 -0.16289741
0.04474906 -0.024903 0.17765783 0.07379849 -0.028417125 0.09319576 0.005689293 0.13160981
0.045493383 0.071887866 -0.045473572 0.112327114 -0.05670875 0.033966675 -0.10812734 0.025361935
-0.11143719 0.038058206 -0.13446018 -0.12264972 0.14877842 0.09845029 0.025020534 -0.03942408
-0.07551726 0.122713946 -0.10307892 -0.13624999 -0.12724562 0.08811822 0.04960918 -0.10714523
0.052226007 -0.009612782 -0.09400526 -0.0012668222 0.09431608 -0.12860142 -0.0995961 -0.09363543
0.10390815 0.031035563 -0.11720742 -0.09457598 -0.07731914 -0.0060737324 0.10349406 0.1351178
-0.057968073 0.0034369908 0.008251636 -0.041160326 -0.009305835 0.09384015 0.024014065 -0.08344408
0.09772467 -0.098905675 -0.14677788 -0.07478535 -0.16975623 0.041498564 -0.01193075 0.1509151
-0.0014885291 0.16356036 -0.1403057 -0.007898968 -0.09175947 -0.03915996 -0.034313712 -0.078120075

dense2.bias f4 [4]
00000000: 1e56 20bd 8a9b bd3d 5cd2 153d 278d 523d
-0.039144628 0.09258182 0.036577567 0.051404145
