Pytorch Model/trained_model.pth (torch, 839186 bytes, 12 tensors)

lstm.weight_ih_l0 f4 [512, 3]
000000 45 f4 eb 3d 18 96 a5 3d 8a 6e 0f 3d b1 63 59 3d
       0.115212 0.08085269 0.035017528 0.05307359
000010 ab 94 b1 3d 4d 20 a2 3d 6e 07 88 3c b7 87 75 3b
       0.08670934 0.07916317 0.016605105 0.0037464926
000020 b2 bc 1f 3d be ea 19 3c 75 50 4e 3d 1b 42 a9 bd
       0.038998313 0.009394346 0.0503697 -0.08264562
000030 5f 44 a6 3d 66 8c 8e 3c 36 66 34 3d 2d a2 8e 3d
       0.081185095 0.017400932 0.04404279 0.06964526
000040 22 6c 8e 3d a9 c1 9d 3d 88 41 3e bb e2 3a a8 3d
       0.069542184 0.07702953 -0.002903076 0.08214356
000050 80 c0 90 bd 91 be aa 3d 6c 40 d2 3c f3 40 87 3d
       -0.070679665 0.08337129 0.025665484 0.06604185
000060 fc d9 3e 3d e6 47 6b 3c e5 b0 29 bd e5 ae 2f bd
       0.046594605 0.014360404 -0.041428465 -0.0428914
000070 6f 86 15 3d 46 cc ea bc f3 13 39 bd 6f 52 54 bd
       0.03650516 -0.028661858 -0.04518504 -0.051836427
000080 f8 95 82 bc 9f 73 49 bc 1f ae e4 bc e8 63 73 3c
       -0.015940651 -0.012295633 -0.027915059 0.0148553625
000090 4d 27 89 bc d9 0e ba 3d 27 8c 65 bd d9 c9 74 3d
       -0.016742373 0.09084863 -0.056041863 0.05976281
0000a0 95 6c 9c 3d c9 f3 9a bd f6 24 c9 bc 1a 53 86 3d
       0.07637898 -0.075660296 -0.024553757 0.06558819
0000b0 d0 c4 d4 bb d1 1d fd bb 8b 03 22 3d ee 25 21 3d
       -0.0064931884 -0.0077245017 0.03955416 0.039342813
0000c0 18 82 aa 3b b4 d8 10 bd 1c 44 8b 3c 89 f2 1a 3c
       0.0052034967 -0.035362914 0.01700025 0.009457239
0000d0 fe b2 54 3d 70 11 83 3c d5 f7 bd 3d cd 6d 61 bd
       0.051928513 0.015999526 0.09275786 -0.055036355
0000e0 1d da 2c bd 0c 22 be 3c 97 3f 0d 3d 08 78 40 bc
       -0.042200197 0.023209594 0.034484472 -0.011747368
0000f0 05 ec ac bc 93 f0 33 3c f3 70 ae 3d 1f c7 6a 3d
       -0.021108637 0.01098265 0.08517637 0.057318803
000100 9b fb 00 3e 64 e6 df 3c d4 50 87 3d 11 0a 8c 3c
       0.1259598 0.027331538 0.066072136 0.017094644
000110 36 1b 64 3d 9f 6d 56 3d 08 23 97 bc 60 5d 00 3b
       0.055690013 0.052350637 -0.018449321 0.0019586906
000120 18 51 ca bc c8 99 9f 3d 20 84 25 bd 3e d4 87 3a
       -0.024696872 0.07793003 -0.040409207 0.0010362936
000130 2f ab e1 3c ef 9e 86 3d 6c a2 d9 3c dc f3 99 bd
       0.027547447 0.06573283 0.026566707 -0.075172156
000140 47 71 9b bd 13 88 2f bd b4 35 9b 3d b0 ab 9a 3c
       -0.07589965 -0.04285438 0.075786024 0.018880695
000150 12 15 60 bd a7 f0 2c bc 42 e4 e4 bc 46 eb c7 3a
       -0.054707594 -0.010555423 -0.027940873 0.0015252612
000160 28 50 7f 3b 83 dd b2 bd 70 9f ab 3b f6 2c 01 3e
       0.003895769 -0.08733656 0.0052375123 0.12614807
000170 c9 ec 21 bd 98 95 c9 3a 68 9b 24 bd 44 1d 79 bd
       -0.039532457 0.0015379665 -0.04018727 -0.060818925
000180 31 55 75 bc c5 4c d2 bb 56 d1 ff bc 7d fc a4 3d
       -0.0149739245 -0.006417843 -0.031227749 0.08055971
000190 b4 8e 3e 3d 7b a0 8a 3d d4 94 b2 3d 69 2b 15 3c
       0.04652281 0.067688905 0.08719793 0.009104588
0001a0 81 40 b1 bd ce 19 9b 3d 63 a9 a8 3d 65 5a 9a 3d
       -0.08654881 0.07573281 0.08235433 0.07536773
0001b0 0f 1c 93 3d b3 21 cf 3d 5f 2d af 3d b3 08 39 bd
       0.07183086 0.101138495 0.08553576 -0.04517431
0001c0 ab e2 6f bd d5 c7 8b 3d d2 73 86 bc a9 c7 ea 3d
       -0.058565777 0.06825224 -0.01641265 0.114638634
0001d0 28 36 ab bd 4f 92 cb bc cc 65 37 3d b4 de fb bc
       -0.08359939 -0.024850039 0.044774815 -0.030745842
0001e0 65 6c 51 3c 42 bd 3a 3d 99 36 a3 3d 59 f6 1a bd
       0.012782191 0.045590647 0.07969398 -0.03783259
0001f0 d1 3f 5f 3d e8 c7 fa 3c 33 1c 44 bd d7 54 56 bd
       0.05450422 0.0306129 -0.047878455 -0.052327003
000200 bc 08 91 bd 20 73 80 3d 1e 8f 56 bd e0 64 4a 3b
       -0.07081744 0.06271958 -0.05238258 0.003088288
000210 19 29 4a 3d 09 04 39 bd 3c f7 74 bd 29 a1 13 bd
       0.0493556 -0.045169864 -0.059806094 -0.036042366
000220 2d 3b e4 3c 1e 8e 91 bd 36 5c be 3b ac 96 9a 3d
       0.027860248 -0.07107185 0.0058093322 0.0754827
000230 a0 3e 9b bc 5e 48 03 bd c3 88 42 3c 4f b6 86 3d
       -0.01895076 -0.032051437 0.011873427 0.06577741
000240 86 65 55 3d dd e7 9a bd f9 e8 a4 3d 72 80 a8 3d
       0.052098773 -0.07563756 0.080522485 0.08227624
000250 3b 0a 83 bd 58 54 6b 3c d9 ea bf bc 4a 9a de 3d
       -0.06398436 0.014363371 -0.023427414 0.10869272
000260 53 5c ab 3d 08 2d c1 bc e0 3d 02 bd 62 d1 93 bd
       0.08367219 -0.023581043 -0.03179729 -0.07217671
000270 e4 eb b3 3d 1a 49 43 bc ca 09 3b 3d a5 d7 a6 3d
       0.08785227 -0.011919284 0.045663632 0.081466
000280 72 57 c0 3c 80 c9 d4 3c 7f c5 ab 3c a9 6a 04 3c
       0.023479197 0.025974989 0.020968197 0.00808207
000290 da ee 86 bd bd 7f 56 bd 53 48 ef 3d 82 39 2d 3d
       -0.06588526 -0.052367914 0.116837166 0.04229117
0002a0 53 c5 08 3d a8 26 97 3d f0 2b a3 3c 83 b0 14 bd
       0.033391308 0.0738042 0.019918412 -0.036301147
0002b0 2a 46 d6 bb 40 6e 0b 3c 60 ea 49 bd c5 cd 2a bd
       -0.006539126 0.008510172 -0.049295783 -0.041700143
0002c0 70 4c f0 3b e9 df a8 3d 17 7a b8 bc 3d 39 aa bd
       0.007333331 0.082458325 -0.022519154 -0.083116986
0002d0 63 92 27 bd 0b 2f 92 3d b0 15 0d bc 2b 85 6c 3d
       -0.04091109 0.07137879 -0.008611128 0.057744186
0002e0 ac 20 35 3d be a7 40 3d 0f 48 06 3c 93 b5 30 3b
       0.04422061 0.04703497 0.008195891 0.0026963695
0002f0 76 bc 84 bd 4b 68 86 3c 0f 3f 81 bd 1e 90 23 3d
       -0.064812586 0.016407153 -0.063108556 0.039932363
000300 cc 56 94 39 78 b5 4c 3d 44 c6 35 bd 7e 2f c3 3d
       0.00028293428 0.04997775 -0.044378534 0.09530543
000310 17 5f 12 3d b5 a7 a6 bd 0d a7 2f bd 40 ac 64 3d
       0.035735216 -0.08137456 -0.04288392 0.055828333
000320 22 17 41 3d 7b c2 76 3d 07 bb f8 bc 60 d7 f1 bb
       0.0471412 0.060244065 -0.03036262 -0.007380411
000330 33 1e 3c bd 7e 42 85 bd 86 28 40 bd b6 36 a3 3d
       -0.045927238 -0.06506823 -0.046913646 0.0796942
000340 02 9c a4 3d 80 79 48 bb cd 63 6e bc 8a 57 9b bc
       0.08037569 -0.0030589998 -0.014550162 -0.01896264
000350 1b c0 a4 bd e4 6f cd 3d 9f 3d 61 bd 1e 41 17 3d
       -0.08044454 0.10031107 -0.054990407 0.036927335
000360 d7 4b 06 3d 14 68 bf 3c f8 da 47 3c 1e 28 80 bc
       0.03278717 0.023365058 0.012198202 -0.01564413
000370 dc 89 e1 3d 80 64 33 3c 60 7d 48 3d 2b 4e 3b 3d
       0.11012623 0.010949254 0.048947692 0.045728844
000380 57 dc 86 bd 86 cc 8e 3d a8 e4 f3 bc 80 ac aa bb
       -0.06584995 0.069726035 -0.029772118 -0.005208552
000390 4c 2a ca 3b e3 ee 8d bd f0 41 7f bc ce 5e 9d bd
       0.006169593 -0.0693033 -0.015579686 -0.07684098
0003a0 7e 86 33 3c f8 f7 54 bc 14 bd 5b bd 8f 44 32 3c
       0.010957358 -0.0129985735 -0.053647116 0.010880603
0003b0 1c 3e 99 bc 46 1a 98 3d 7a 28 d6 3d 52 5a e1 bc
       -0.018706374 0.07426886 0.10456939 -0.027508888
0003c0 33 ae 08 3d 77 58 0c 3d f8 b0 d8 3c 3c 6e 7a bc
       0.033369254 0.034264054 0.026451573 -0.015285071
0003d0 09 70 0b 3c de 89 0a 3d af 93 5e bd 7e e0 15 3d
       0.008510598 0.033822887 -0.05434006 0.036591046
0003e0 88 41 0f bc e5 bb 75 3d 4c 94 bb 3d 57 5f 91 bd
       -0.008743651 0.059993643 0.09159145 -0.07098263
0003f0 25 b0 a6 3c d4 a3 36 3d da 57 83 bd 21 83 e1 3c
       0.020347664 0.044589832 -0.06413241 0.027528347

lstm.weight_hh_l0 f4 [512, 128]
000000 3c d8 a4 3d 93 c0 14 bd 16 5c 0c 3d ab ef aa 3d
       0.08049056 -0.036316466 0.034267507 0.08346494
000010 74 e4 35 3d 93 a7 57 bd 42 3c 38 bd 97 bc 22 bd
       0.044407323 -0.052650046 -0.04497934 -0.039730635
000020 2b 20 bb bd a7 13 56 3d 45 67 51 bd 0e 93 bd bd
       -0.09136995 0.052264836 -0.051123876 -0.09256564
000030 55 75 90 bd 9e cd 32 bd 7c 20 a5 bd 43 ea 10 bc
       -0.07053629 -0.043653123 -0.080628365 -0.008844915
000040 fc 26 8d bd 8a 62 fe bc 63 9d 1b 3c 2f 4a e0 3d
       -0.06892201 -0.031052846 0.009497973 0.109516494
000050 96 3a a4 3d 66 25 38 3d 33 1c 13 bc 2f 46 f9 3d
       0.08018987 0.04495754 -0.008978891 0.121715896
000060 72 8a 24 bd 70 ed 27 3d dc 4e 36 3d a7 1c 01 3d
       -0.040171094 0.040997922 0.0445088 0.031521466
000070 35 96 89 bb 3f 04 74 3d 41 18 bf 3c 85 1c 0a 3d
       -0.0041988143 0.059574362 0.023326995 0.033718605
000080 c8 31 fd 3d 5b 4a ed bd 59 8e b6 bc 1f 25 ea bc
       0.12363011 -0.11586448 -0.022284674 -0.028582154
000090 18 64 b8 bc 1d 37 8b 3d 8b 2f 28 3d 68 5f 48 bd
       -0.022508666 0.067976214 0.041060966 -0.04891911
0000a0 cf 8a 81 bd f2 24 de 3c 5e 05 de 3d 83 ab ee bc
       -0.06325304 0.027117226 0.108408675 -0.029134518
0000b0 c1 ae b4 bd 2e 64 87 bd 67 7d 50 3c 21 41 10 3d
       -0.08822394 -0.06610905 0.012725211 0.03521836
0000c0 69 51 54 bc bd a9 d4 bd 42 7a 38 3d c8 c6 fc 3c
       -0.012958863 -0.103839375 0.04503847 0.030856505
0000d0 15 1b b8 bd ab f1 f9 3d 3b aa c4 3c 95 00 c5 3d
       -0.089895405 0.12204298 0.024006953 0.09619252
0000e0 ef f3 79 bd 8c 8c 9b 3b fa 0c 67 3d e1 53 a7 bc
       -0.06102365 0.004746979 0.05640886 -0.020425739
0000f0 79 52 51 3d 5a 33 40 3d 76 e1 8d 3d 1a 20 d7 bd
       0.051104043 0.046923973 0.06927769 -0.1050417
000100 9f 3a 4a bd 2b 20 54 bd 90 0c b8 3d e3 b2 2f 3d
       -0.04937231 -0.05178849 0.08986771 0.04289521
000110 98 cb 25 bd 32 1b 5b bd 1d 6f 98 3d ff 42 e6 bd
       -0.040477365 -0.053492732 0.07443068 -0.11243247
000120 94 44 bb 3c ff 2a b6 3c 40 6b 7a ba cd 56 1c 3d
       0.022859849 0.022237299 -0.00095527247 0.038168717
000130 8c 65 b6 3d a5 9e 2b bd ad 1d 32 bd ac 9f 2a 3d
       0.08906087 -0.041899342 -0.043485332 0.04165618
000140 7b 16 e2 3d 5a 7f a0 bd 80 2f 72 3d 51 72 da bc
       0.11039444 -0.078367904 0.05912733 -0.026665838
000150 a9 a1 86 3d e6 0d e3 bd 7d f3 aa 3c 41 70 a4 bc
       0.06573803 -0.11086635 0.020868057 -0.020073058
000160 1c 3a 7c bd af a0 27 bd a5 ef 94 bd f8 93 86 3d
       -0.061578855 -0.040924724 -0.07272271 0.065711915
000170 e6 ed 4d bd f9 8d a9 3c 3a c9 ec bd 20 ea b5 3b
       -0.050275706 0.02069758 -0.115618184 0.0055515915
000180 67 b9 33 bd e1 df 82 bd 29 16 a3 3d af 36 94 bd
       -0.043877985 -0.06390358 0.07963211 -0.072369926
000190 21 fe 57 bd 8a 79 c2 bb c3 fb 0e 3d 22 30 2b 3d
       -0.05273259 -0.0059348987 0.034908067 0.04179395
0001a0 26 9c c7 bd fd 07 21 bd 8b 7a 86 bd 6f 1d 5a bd
       -0.0974658 -0.03931426 -0.06566342 -0.053250726
0001b0 ca 79 bd bd 50 33 89 bc 2a 7b cc bd 49 96 92 bd
       -0.09251745 -0.0167481 -0.09984429 -0.07157571
0001c0 6c 4c 55 bc 0c aa bd 3d b4 24 c5 3c bd 40 40 bd
       -0.013018709 0.092609495 0.024065353 -0.04693674
0001d0 b0 0b b7 bd 66 8e 97 bc 01 24 41 bd c4 bf 48 3c
       -0.08937776 -0.018500518 -0.047153477 0.012252752
0001e0 28 fd 88 bd 6b 65 cd 3c b0 41 bf 3c d5 79 66 3d
       -0.06688911 0.025072774 0.023346752 0.05626853
0001f0 3c e0 79 3d 02 8d b3 bd 15 d9 dd 3d 47 68 f1 3b
       0.061004862 -0.087671295 0.10832421 0.007367167
000200 2a 89 db 3d de f0 8e 3b 24 0f 0b bd 35 b7 00 3e
       0.10719521 0.0043622097 -0.033949986 0.12569888
000210 d9 f1 79 bb 33 ba fc bd de f3 88 bd 67 26 e3 bd
       -0.0038138537 -0.12340202 -0.06687139 -0.11091309
000220 a4 2b a8 bd 3a 81 23 bd fb 25 49 3c a2 63 c7 3c
       -0.08211449 -0.039918162 0.012277122 0.0243395
000230 4d 6f 22 bd 65 18 d0 3d ba 2f da 3c 18 22 01 bd
       -0.039656926 0.10160903 0.026634086 -0.031526655
000240 e6 d4 13 bd c7 31 82 3c 5c 65 72 bd f7 e2 cc 3d
       -0.036091708 0.015892876 -0.059178695 0.100042276
000250 9a 97 54 3d 42 9c 0f 3d 41 13 a8 3d 5f 4c 40 bd
       0.05190239 0.03506113 0.082067974 -0.046947833
000260 68 ba 1a bc 0f 83 dd bd 2f de a9 3d 63 ae 24 3d
       -0.009443857 -0.10816013 0.08294331 0.04020537
000270 c5 7e dc bd b5 cd 8c bd d0 d0 7f 3d 5f d8 51 bc
       -0.10766367 -0.06875173 0.062455 -0.012807935
000280 4c 05 b8 3a d1 57 1d bd df ba 88 3d 4c bd cc bd
       0.0014039665 -0.038413826 0.06676268 -0.09997043
000290 2d a0 a0 bd 33 2d b0 3d 54 66 69 3d 05 05 13 3d
       -0.07843051 0.08602371 0.056982353 0.03589346
0002a0 bc d1 57 3d 37 e9 b7 3d 91 16 aa 3d 01 8e e6 bd
       0.052690253 0.08980029 0.083050855 -0.11257554
0002b0 0b ad 8e bc 79 7c b0 bd 82 4e 94 3d 57 a9 f3 ba
       -0.017416498 -0.08617491 0.07241537 -0.0018589896
0002c0 d4 0c e9 bd d1 2b ac bd 1d 8f a2 bd df 6c ce bd
       -0.113794 -0.08406795 -0.07937453 -0.10079359
0002d0 37 6d 2a bd cd da 08 3d 7b d8 dd bc 13 5d 5a 3c
       -0.04160806 0.03341179 -0.027080765 0.013327855
0002e0 d2 53 a4 3d e3 a2 86 3d ae 1a 84 3c c8 d3 3b bd
       0.080238 0.06574037 0.016126003 -0.045856267
0002f0 7b 1d 22 3d b2 e1 26 3d b1 e8 96 3c 96 62 f6 bd
       0.039578896 0.040742584 0.018421503 -0.120305225
000300 49 cd 0f 3d a1 0d 43 3d ff a1 3c 3d 5e 74 62 3d
       0.035107885 0.04762042 0.04605293 0.055286758
000310 6a 9d d3 bc e0 f9 58 bd 88 9a 94 3d ea 77 dc bd
       -0.025831897 -0.052972674 0.07256037 -0.10765059
000320 a0 e3 9c bd c9 89 10 3d 92 1e 77 3c 27 4a f5 bb
       -0.076606035 0.035287652 0.015082972 -0.0074856463
000330 5d f8 89 bc 25 a1 80 bc 9f 15 00 3d bd 2b c6 3d
       -0.016842062 -0.01570184 0.03127062 0.09676311
000340 55 10 f1 bc 8b 32 82 bd d4 eb d5 3c 49 6b a9 bd
       -0.029426733 -0.063572966 0.026113428 -0.08272416
000350 bb 34 8e 3d e8 e0 1e bd a4 07 bc 3c 84 cc c4 bc
       0.06943651 -0.038788706 0.022952862 -0.024023302
000360 d2 d1 8f bd 1c a9 52 bd 7d c6 bb bd 8b 24 5d bd
       -0.07022442 -0.051430807 -0.09168718 -0.05398993
000370 11 12 a3 bd ba 5c 19 3d 10 fd 84 bc 21 5b f0 3d
       -0.0796243 0.037441947 -0.01623395 0.117361315
000380 46 5c 63 3d 64 b6 47 bd fc 2a bf 3d 80 63 8d bd
       0.05550792 -0.048757926 0.093343705 -0.06903744
000390 3c 58 95 bb cc 35 dc 3d a1 af 10 bc 3f 98 8d bd
       -0.0045576375 0.107524484 -0.008830936 -0.06913804
0003a0 46 1c 4f bd 4e 7b b7 3c 49 ec 5d bd 67 88 2f 3c
       -0.050564073 0.022397663 -0.054180417 0.010713673
0003b0 96 7f e0 bc 7c 45 1c 3d 22 bb 29 3d 8f 42 09 3d
       -0.027404588 0.038152203 0.04143823 0.03351074
0003c0 84 d2 8c bc 76 92 0d 3c d0 7c 89 bc d7 d6 7b 3c
       -0.017190225 0.008640876 -0.016783148 0.015371046
0003d0 ab 0a a2 bc fd e4 0b bd 17 df dd ba ef d0 d4 3a
       -0.019780478 -0.034153927 -0.0016927448 0.0016236583
0003e0 10 a6 db bd 47 fb ae bd 3e 39 13 3d 2b d9 28 3b
       -0.10725033 -0.08544021 0.035943262 0.0025764208
0003f0 f2 c6 b4 bb 52 13 c0 bd 82 0f d7 bc f0 00 cf 3b
       -0.00551688 -0.09378685 -0.026252512 0.0063172504

lstm.bias_ih_l0 f4 [512]
000000 68 15 a0 3d fa 5f cb 3d 8f 86 f1 bc e0 a3 b5 bc
       0.07816583 0.099304155 -0.029483108 -0.022172868
000010 91 7e c2 3d 3d ff b2 3c 06 1d 82 3d 0a 21 66 bd
       0.09496797 0.021850223 0.06353192 -0.056183852
000020 a2 a3 23 3d df 91 8c bd ad 21 df 3c f7 92 7b bc
       0.039950974 -0.0686376 0.027237738 -0.015354863
000030 22 1e 32 3d 6f 55 b8 3d 4e 19 a6 3d 37 7d b8 3d
       0.04348577 0.0900067 0.08110295 0.09008258
000040 be da 5f bd 26 ed d2 3b a0 8a c1 3d 00 fd 03 3b
       -0.05465197 0.0064369617 0.09450269 0.0020139813
000050 16 07 98 3d a9 18 41 3c 4a 01 c3 3d e2 12 dd 3b
       0.074232265 0.011785665 0.0952173 0.006746636
000060 a6 67 9b 3c 53 18 d8 3d 76 d7 5a 3d 55 f7 eb 3c
       0.018970322 0.105515145 0.053428136 0.02880446
000070 81 34 30 bc ab e0 7f 3d 52 3a 7d 3d 75 bd 82 bc
       -0.010754705 0.06247012 0.061823197 -0.01595948
000080 c5 7a b2 3d 23 60 c4 3d ef 16 87 bd eb 60 b8 3d
       0.08714823 0.09588649 -0.06596171 0.09002861
000090 a2 32 bb 3c 54 c8 39 bc 7a 1e 25 bd 91 ed 5e bd
       0.022851292 -0.011339266 -0.040312268 -0.05442578
0000a0 75 9b 1c bc 88 1f c0 3b 84 2f 37 3b 41 0a e1 3c
       -0.009558548 0.005863134 0.0027951906 0.02747071
0000b0 df 43 8b 3d 93 3e a9 3d 54 bd 2b bc 7e 15 fc bc
       0.06800055 0.08263888 -0.010482151 -0.030771967
0000c0 71 dc 41 3c 0c 61 09 bd 70 39 8c bc 3c ac b1 3d
       0.0118323425 -0.033539817 -0.017117232 0.08675429
0000d0 1d 71 f2 3c 31 ad 72 3c 17 d4 53 3d c9 90 9d 3d
       0.029594952 0.0148118 0.051715937 0.07693631
0000e0 1b bb 22 3d 3a 0a 9d 3a cc 16 55 bd d7 fa 17 3d
       0.03972922 0.0011981197 -0.052023694 0.037104454
0000f0 95 00 37 bc e3 2b 65 3d 86 37 d1 3d e8 f7 a8 bc
       -0.011169572 0.055950057 0.102156684 -0.020626023
000100 d2 52 39 3d 4e 50 23 3d 27 2e 95 3d 9c b1 64 bc
       0.045245 0.039871506 0.072841935 -0.013958361
000110 1e d8 77 3c 18 b3 fc 3b 7e f1 e3 3c 6d 12 be 3c
       0.01512721 0.0077117793 0.027825113 0.023202145
000120 c6 c7 96 bd cd 43 55 bd ab 58 8f 3d 46 78 d1 bc
       -0.073623225 -0.052066613 0.06999334 -0.025570046
000130 a4 8b 93 3d a3 50 ee 3c 1c f0 ef bc 65 d2 ca bb
       0.07204369 0.029091185 -0.029289298 -0.0061896318
000140 29 6f 9d 3d 15 0a 6f 3c 52 16 61 bd f7 7b 98 3d
       0.07687218 0.014589806 -0.054952927 0.074455194
000150 5e 78 7a 3d 0a 80 42 bd 79 04 a2 3d 72 74 c6 3c
       0.061149947 -0.04748539 0.07911009 0.024225447
000160 e6 90 a3 3d 4f 26 7a bd be bd a3 bc 6c 77 8e 3b
       0.079866216 -0.06107169 -0.019987937 0.0043477323
000170 87 64 ff 3d 4f de c5 3d ab 34 a7 bc a1 88 ff bc
       0.12470346 0.096615426 -0.020410856 -0.03119308
000180 56 ca 3a bd d4 66 db bc ca 2a d0 3d 96 a3 4e bd
       -0.04560312 -0.02678243 0.10164411 -0.050448976
000190 3d 3b 46 bc 6e 96 14 3d bd 40 46 bd c7 18 08 bd
       -0.012099084 0.036276273 -0.048401583 -0.033226755
0001a0 bf ef 6f 3d 7d d7 aa bc 13 c3 a5 3d bc 6b d0 bc
       0.05857825 -0.020854706 0.08093848 -0.025441997
0001b0 b0 ce 8c bd 88 f7 82 3d 49 34 2f bd 95 3d 04 bd
       -0.0687536 0.06394869 -0.042774472 -0.03228529
0001c0 ed 41 1f bd 3f fb 61 39 13 82 4c bc 0c 3f d0 3d
       -0.03888123 0.00021551269 -0.012482184 0.10168275
0001d0 cd a6 90 3d 8b cb 60 bd e7 f0 c0 bc 01 fb f4 3c
       0.07063065 -0.054881614 -0.023552371 0.029904844
0001e0 20 2d 77 bd 66 19 2d b9 d3 dd 3a bc 2b 5b 72 bb
       -0.06034577 -0.00016508027 -0.011405426 -0.003698061
0001f0 9e ec b7 3d 4b 94 41 bb 1c 95 a0 3d 99 d2 80 3c
       0.08980678 -0.0029537852 0.0784094 0.01572542
000200 30 02 b7 3d 93 c9 d6 bc ce 6f 9a 3d 67 3f 08 bd
       0.08935964 -0.026219165 0.07540856 -0.03326359
000210 55 3c 51 bc 8f ab 23 3d 1e 20 93 3d 67 d5 4a bd
       -0.012770732 0.039958533 0.0718386 -0.049519923
000220 3c d7 4e bc 13 ec a3 3d 9a 80 c6 b9 52 b1 36 bd
       -0.012624558 0.08004012 -0.0003786132 -0.0446027
000230 7f dc e2 bc 85 36 6d bd 03 e9 80 bd 7c 78 85 bd
       -0.027693031 -0.057913322 -0.062944435 -0.06517121
000240 8a 8a cd 3d fb d1 91 bd c2 85 05 bd 75 7c 4d bd
       0.1003619 -0.07120129 -0.032598265 -0.05016752
000250 0f 1b 31 3d 18 8e 08 3d 72 32 aa 3d b2 d8 af 3d
       0.043238696 0.033338636 0.08310403 0.08586253
000260 bb 55 3d bd 14 fc 22 3d 10 43 82 3d ba bc e3 3c
       -0.046224337 0.03979118 0.063604474 0.027799953
000270 be 3d 8d bd fc 7a 98 ba 7d 8d 81 3c d5 d4 44 3d
       -0.06896542 -0.0011633332 0.015814537 0.048054535
000280 b4 c7 7d 3d 2d a1 fb bc 19 42 91 bd 2d 90 36 3d
       0.06195803 -0.030716503 -0.07092685 0.04457109
000290 3f 1c 28 3d 59 84 47 bd 50 a2 80 bd b8 22 92 3b
       0.041042563 -0.0487102 -0.06280959 0.004459705
0002a0 97 49 6d bd 65 04 7c bd aa f8 54 3c eb 33 67 3d
       -0.05793151 -0.06152763 0.012998739 0.056445997
0002b0 ff 30 62 3d 03 eb 5d bd 18 eb dc ba 0a 98 5e 3d
       0.055222508 -0.054179203 -0.0016854731 0.054344214
0002c0 3a d2 3c 3d 30 07 58 3d 6b f3 d5 3d c0 9f 5b bc
       0.046098925 0.05274123 0.10446819 -0.013404787
0002d0 55 54 25 bd fa 27 6f bd c7 92 1a 3c f1 56 ac 3d
       -0.04036363 -0.058387734 0.0094344085 0.0841502
0002e0 d7 64 5b 3d 2a dc 0b bc a0 84 42 bd e9 86 85 bd
       0.053562965 -0.008536378 -0.047489762 -0.06519873
0002f0 94 2c 92 3d dc 6a 4b bd a5 a0 ac bc 2f 96 6b 3d
       0.07137409 -0.049662456 -0.021072695 0.057516273
000300 8b ac 2e bd 7c 63 e3 ba bd 66 00 bd 7d 20 10 3c
       -0.04264502 -0.0017348374 -0.03134798 0.008796808
000310 f2 88 08 bd 6b 5b d1 3d 26 c5 09 bc be 16 db bc
       -0.033333726 0.10222515 -0.00840882 -0.026744243
000320 55 61 b4 3c 86 92 00 bd f6 54 9f bc 4a 57 34 bc
       0.022019068 -0.031389736 -0.019449692 -0.011007139
000330 f0 f3 96 bc 96 a4 96 3d ec 78 6c 3d 7e d7 41 bd
       -0.018426865 0.07355611 0.057732508 -0.04732465
000340 fe e0 21 3d 0d 5d c8 3d 85 34 5a 3d ab 6f 4e 3d
       0.03952121 0.09783373 0.053272743 0.050399464
000350 ed 37 56 bc be 6c 7b 3d 3f cb 96 3a 0f 8e ea 3d
       -0.013074857 0.061383 0.0011504664 0.11452877
000360 a0 f0 2d bd 94 18 04 3d ea 63 a7 3c 15 c1 08 3d
       -0.042465806 0.032250002 0.020433385 0.033387262
000370 00 36 57 3d b5 b1 cf 3b e7 9a 1a bd 67 be 15 3d
       0.052541733 0.006338323 -0.037745383 0.036558535
000380 96 1a ca 3d 52 3d 70 bd 05 f1 4e 3d 07 00 0f bd
       0.09868352 -0.05865223 0.050522823 -0.034912135
000390 94 e3 5d bd 73 c8 90 3d 53 9e 8b 3d e6 8f 62 bd
       -0.054172114 0.07069483 0.06817307 -0.055313013
0003a0 f2 45 f7 bc 8f da 84 3d 37 a4 26 3d de 96 c4 3c
       -0.03018472 0.06486999 0.04068395 0.02399772
0003b0 c3 35 a9 bd 7f 10 c3 3d cd 4f f8 bc 3d e7 03 bd
       -0.08262207 0.09524631 -0.03031149 -0.032202948
0003c0 0c 29 36 bd d3 eb e5 3d d5 af 8b 3d 47 38 b3 3d
       -0.04447274 0.112266205 0.06820647 0.087509684
0003d0 8a eb 6f bd 15 ec cf bc d6 0a 48 bd 80 08 62 bc
       -0.058574237 -0.025381127 -0.04883846 -0.013795972
0003e0 d9 81 70 bd 8b 85 70 bc 69 68 c1 bc 08 6e b9 3c
       -0.058717582 -0.014680277 -0.023609357 0.022635475
0003f0 f2 bf b0 bc 3c 6c 23 3d de ed d2 bc 32 1a f6 bc
       -0.021575902 0.039898142 -0.02574819 -0.030041788

lstm.bias_hh_l0 f4 [512]
000000 4f 93 d6 3d 91 de fc 3d ac e2 8a 3d e5 03 d9 3d
       0.10477316 0.12347139 0.067815155 0.10596446
000010 25 7e 3f 3c a7 a7 af 3d d8 84 4f bc 22 e3 84 3d
       0.01168779 0.08576899 -0.01266595 0.06488635
000020 4e 76 79 bd 9c 96 4a bd b5 40 5c bc 0e be fc 3d
       -0.06090384 -0.04946004 -0.013443162 0.123409376
000030 32 03 60 bd fb 29 19 bc 76 22 15 bd 54 24 69 3d
       -0.054690547 -0.009348388 -0.036409818 0.05691941
000040 be 44 6f bd 08 44 83 3d 7e 71 d9 3b 74 8f 2a bd
       -0.058415167 0.0640946 0.006635844 -0.041640714
000050 14 e3 1f 3c ac 38 ef bb c2 8e 80 3d 83 99 be 3d
       0.0097587295 -0.007300457 0.06277229 0.09306624
000060 30 e9 3f 3d a0 20 3b 3c ed 20 02 3d 03 18 75 3d
       0.046853244 0.011421353 0.03176968 0.059837352
000070 85 dd 96 3d 89 92 c8 3d c9 47 01 3d fe e2 3f bc
       0.0736647 0.09793574 0.0315626 -0.011711834
000080 55 63 32 3c 1d 9a 8d 3d e4 eb 10 bd ba 63 10 3c
       0.01088794 0.069141604 -0.035381213 0.008812839
000090 4f 66 9c 3d d9 bc a3 3d b4 4d 50 3c f2 ed 62 3d
       0.07636701 0.07995004 0.012713838 0.055402704
0000a0 b7 fc 5c bc e0 1d 27 bd 5d b7 37 bd 44 37 b1 3d
       -0.013487986 -0.040799975 -0.044852603 0.08653119
0000b0 2e 61 71 3d a9 e6 77 3c 12 4b 01 3d a8 97 aa bc
       0.05893057 0.015130677 0.031565733 -0.020824268
0000c0 d1 a7 ed bc c7 ff 36 3c a0 0b b4 3d 07 c6 8f 3a
       -0.029010685 0.0111693805 0.0879128 0.0010969051
0000d0 67 b4 a3 3d 8d 29 75 3d e6 dc 42 3d 93 58 44 bd
       0.079933934 0.05985408 0.047573946 -0.047936033
0000e0 16 bf 5b 3d 2b 35 1a 3d 90 b1 b8 3d 13 e9 30 3c
       0.05364903 0.03764836 0.09018242 0.010797757
0000f0 11 d7 04 3d e9 9b 94 3d 90 03 8d 3d 23 0d 90 3d
       0.032431666 0.072563 0.06885445 0.07033756
000100 c9 a2 ea 3d e0 2b 62 3d 08 df 2a bd 08 f6 16 3d
       0.1145683 0.055217624 -0.041716605 0.036855727
000110 f0 40 5e 3d 65 fe cd 3d 91 8a 1a bd 3c 7b dc b7
       0.054261148 0.100582875 -0.037729803 -2.628343e-05
000120 25 43 2f 3d 7f e0 a6 bc 55 df 56 3c cf 16 4a 3d
       0.042788643 -0.02037072 0.01311477 0.04933816
000130 d8 0b 5d bd 8e ec d1 3d 99 a5 7e 3d df ab cb 3d
       -0.053966373 0.10250197 0.062169645 0.09944891
000140 eb 71 a1 3d 95 0f 06 bd 46 d4 cc 3d 94 0d b7 3d
       0.07883056 -0.032729704 0.100014254 0.08938137
000150 00 f7 2a 3d c3 d7 8a bd 38 4f 2d 3d 88 39 46 3c
       0.041739464 -0.067794345 0.042311877 0.012098677
000160 7d cc d4 3b 90 f8 0d 3c ad ea 91 3d fd ed 68 3c
       0.0064941035 0.008665219 0.07124839 0.014216897
000170 b3 10 bd 3d f7 da 1c bd cc c2 3e 3d 8a ae 2a 3d
       0.09231701 -0.03829476 0.04657249 0.04167036
000180 e4 80 35 3d aa 8d 82 bd d7 00 a1 3d 24 4a b8 3d
       0.044312373 -0.063746765 0.07861488 0.08998516
000190 f9 ce d8 3d b7 0e c8 ba da 2b 03 3d 3a 8f 2f 3d
       0.10586352 -0.0015263174 0.032024242 0.0428612
0001a0 2a f1 57 b9 93 9d ca 3d 04 e9 cc 3d dc 1c b5 3d
       -0.00020593838 0.09893336 0.10005382 0.08843395
0001b0 2e bf 38 bd 59 37 ef 3d 09 49 19 3d b9 9b e4 3d
       -0.0451042 0.116804786 0.037423167 0.11162514
0001c0 eb dd 0e 3d ab 96 b0 bc 2c 06 90 bd ce 6d 8a 3d
       0.034879606 -0.02155622 -0.07032427 0.06759225
0001d0 b9 dc 54 bc 2d 66 5c bd ac ba 97 3c 62 72 78 3d
       -0.0129920775 -0.05380838 0.01852163 0.06065596
0001e0 33 07 be 3c 4b 15 8b 3d 1d 03 2a bd de 72 cc 3c
       0.023196792 0.06791171 -0.041506875 0.024957117
0001f0 a5 a9 a4 3c 28 2a 28 3c 63 64 eb bc 65 83 65 3d
       0.020100424 0.010263957 -0.028734392 0.05603351
000200 b9 1f 9f 3d fa 75 39 3d 86 f9 2b 3c b7 74 72 bd
       0.077697225 0.045278527 0.010496503 -0.05919334
000210 26 3d 21 3d 33 61 f1 3d 83 b6 93 bd 34 17 1d bd
       0.039364956 0.117861174 -0.07212546 -0.038352206
000220 7d b5 44 bd a3 dc a5 3d 32 ec 79 3d d7 6b 57 3d
       -0.048024643 0.08098724 0.06101627 0.05259308
000230 29 47 e4 3c bc c8 8c bd c0 07 7e 3d 8d 05 1d bd
       0.027865963 -0.068742245 0.06201911 -0.03833537
000240 8c 66 8b 3d b2 34 c2 bc 42 c0 5d 3c ed e7 94 3d
       0.06806669 -0.023706768 0.013534607 0.07270799
000250 ed 35 a0 3c 12 20 e0 3c c4 1a 69 bd 02 a0 e5 3b
       0.019556964 0.027359042 -0.05691029 0.0070076
000260 74 b6 83 bc c6 3d 80 3c 08 31 73 3b 8b fa 09 bd
       -0.016078211 0.015654456 0.0037108082 -0.033686202
000270 69 e9 f8 3c c3 86 67 3d e4 7e 65 3d c7 25 b2 3d
       0.030384736 0.056525003 0.056029215 0.08698612
000280 0f 63 b3 3d af 92 cc 3c be c0 11 bc 7f 89 12 bd
       0.08759128 0.024972288 -0.008896051 -0.035775658
000290 81 bd b8 3d 63 b6 ff bc 96 eb 4a 3d 25 ba 79 3d
       0.0902052 -0.031214898 0.04954108 0.060968537
0002a0 ae 68 94 3d 9c d7 a0 3d c5 26 c3 3d c2 f4 c0 3c
       0.072465286 0.07853624 0.09528879 0.02355421
0002b0 02 45 1a 3d ad e7 01 bd a4 1a 34 bd 22 06 cd 3d
       0.037663467 -0.031715084 -0.04397072 0.10010935
0002c0 2e 0a ac 3d d0 92 ad 3d 56 42 e1 3c d9 ee 5b 3d
       0.08400379 0.08475268 0.027497452 0.05369458
0002d0 b2 03 10 bc 69 32 36 3d 58 fb 8e 3c b1 15 6e 3d
       -0.0087899435 0.04448167 0.017453834 0.058126155
0002e0 b3 0a 19 bd 19 38 84 3c 37 e2 22 3c 67 96 cc 3d
       -0.03736372 0.01614003 0.009941629 0.099896245
0002f0 62 77 43 3d b0 75 54 3d fa cf a2 3d 6f e1 9b bd
       0.047721274 0.051870048 0.07949825 -0.076113574
000300 97 da ea 3d 1d 73 2a 3d f4 a0 9e bc ab 22 b0 3c
       0.11467474 0.041613687 -0.019363858 0.021500906
000310 40 93 be 3c 63 1f 05 bd da bd c6 3c 9e d8 85 bd
       0.023263574 -0.032500636 0.02426045 -0.06535457
000320 12 1d 55 3d d7 eb 9a 3d 1c 47 5f 3d a2 19 66 3d
       0.052029677 0.07564514 0.054511175 0.05617679
000330 f1 4b 48 bd 0c c0 b8 3c 8c ad 66 3d 69 50 71 3d
       -0.04890055 0.022552513 0.05631785 0.058914576
000340 12 5f 29 bd 37 a4 95 3d 65 5f 19 bd ef ab a8 3d
       -0.04135043 0.07306712 -0.03744449 0.08235919
000350 f5 c3 62 bd 1a 88 2f 3d 2c 5f e5 bc 10 54 74 bc
       -0.05536266 0.042854406 -0.027999483 -0.01491262
000360 fe 7c 85 bb 48 1f 98 bd 39 d9 1e bc ae 7a 8d 3d
       -0.004073738 -0.074278414 -0.009695345 0.06908165
000370 f9 b6 2a bd 89 9f 6e bd 03 95 06 bd d1 63 91 bd
       -0.041678403 -0.058257613 -0.032856952 -0.070991166
000380 49 fb 8e 3d 1e f0 1e 3d 6c 13 c2 3d 67 eb 90 3d
       0.069815226 0.038803212 0.09476361 0.070761494
000390 fb 25 01 3d e7 d3 eb 3d 75 3e e9 3c b8 bf 2e 3c
       0.03153036 0.115150265 0.028472165 0.0106658265
0003a0 e9 dc 8d 3b aa 49 7b 3c 7d 67 10 bd 33 aa 16 3d
       0.004329313 0.015337387 -0.035254944 0.03678341
0003b0 3f e5 3e 3c 3b ab ce bc e4 77 d5 3d 78 fd c1 3c
       0.011651336 -0.025228133 0.10423258 0.023680434
0003c0 44 a4 54 bd 1f e8 d8 3d f9 1a c2 3c 8c 17 70 3c
       -0.05191447 0.105911486 0.023694502 0.0146540515
0003d0 aa 4e 5e 3d 27 38 30 3d 4a 5a 8e 3c 1a ef af bb
       0.05427424 0.0430223 0.017377038 -0.0053690793
0003e0 8d ca 1f bd db a5 98 3c fa 3b 72 bd 37 d8 64 bd
       -0.039011527 0.018633774 -0.05913923 -0.05587026
0003f0 80 47 9c 3c b9 cf b2 3d 24 6e 8b 3c a2 75 72 bc
       0.019077063 0.08731026 0.017020293 -0.014798554

lstm.weight_ih_l1 f4 [512, 128]
000000 d5 a4 b6 bc ac 51 02 be 24 65 51 bc 3f e8 4e 3c
       -0.022295395 -0.12726468 -0.012780461 0.012628614
000010 3b d7 70 bd 5d 13 97 bd 59 e4 bb bc ec 48 99 3c
       -0.05879901 -0.0737674 -0.022936033 0.01871153
000020 58 00 17 3c e6 df 85 bd e0 95 58 3d f2 d4 68 3c
       0.009216391 -0.06536846 0.052877307 0.014210926
000030 43 43 66 3c 34 5a 0e 3d dc f0 51 3c 94 7e 6a bd
       0.014054122 0.034753993 0.012813773 -0.05724962
000040 91 33 d6 bc 0a 29 3e bd 30 89 36 3d dc 60 8e 3d
       -0.026147636 -0.046425857 0.044564426 0.06952068
000050 9c f8 72 bd 5e 86 65 3d e5 43 8a 3d 4d 54 67 bd
       -0.059319124 0.056036346 0.06751231 -0.05647688
000060 06 a7 5e 3d 22 67 3b 3c 37 11 a2 3d f5 22 a4 bc
       0.054358505 0.011438163 0.0791344 -0.0200362
000070 24 7c 08 bd 1f f4 91 bd c6 3b 3a bd ce 7d c2 3a
       -0.033321515 -0.071266405 -0.04546716 0.0014838518
000080 7b bb 84 bd b7 e0 18 3d 77 78 92 bc d1 c7 c9 bc
       -0.064810716 0.03732368 -0.017879708 -0.024631413
000090 de dd d9 3b b5 85 67 bd 35 ba 5f bd 46 49 7a bd
       0.006648763 -0.056523997 -0.05462094 -0.061105035
0000a0 8c 37 16 3c 98 1c b4 bb f6 48 b8 3c 38 d0 ab bd
       0.009168517 -0.0054965727 0.022495728 -0.08389324
0000b0 d6 cf 90 bd aa 73 39 bd 3d 2f 75 3c cf 45 94 bd
       -0.070708916 -0.04527632 0.014964876 -0.072398774
0000c0 18 86 a0 bd 5b 16 e7 3b ff ae e3 bd fe be 58 bd
       -0.07838076 0.0070522255 -0.11117362 -0.05291652
0000d0 02 fd ba bd af 0f 0d 3d 3a bd ca bc c7 97 af 3d
       -0.09130289 0.034438785 -0.024748433 0.08573871
0000e0 9a c8 95 3d 31 64 30 3d f7 f0 19 3d 5e f0 bd bc
       0.07313652 0.0430643 0.037583318 -0.023185905
0000f0 ee f7 a1 3b 8e ac 73 bd 84 6c 99 3d 82 2d 7a bd
       0.0049428856 -0.059490733 0.07491401 -0.061078556
000100 67 a9 18 bd ae f9 e3 bc 39 04 a6 3d 97 fa 13 3d
       -0.03727093 -0.027829017 0.08106274 0.036127653
000110 f9 be 47 bd 82 b1 e1 bc ec 06 ad bd 4e 59 a5 bd
       -0.04876611 -0.027550463 -0.08448586 -0.08073674
000120 11 4d 87 bd 43 93 cc 3c 89 43 99 bb ce 53 e3 bd
       -0.06606496 0.024972564 -0.0046772403 -0.11099969
000130 91 10 b7 3d a7 5b 97 3c 84 83 15 ba ec a1 dc 3d
       0.08938707 0.01847632 -0.0005703496 0.10773072
000140 0d 6e be 3d 3b 9a 99 3d 9b be 20 3d 8c 69 40 3c
       0.09298334 0.0750012 0.039244276 0.011743914
000150 1b 12 80 bc ba bf 20 3d d8 69 a8 3c d5 0e 91 bd
       -0.015633633 0.039245345 0.020558283 -0.07082907
000160 e6 72 07 bc 70 6a cf bb ed fa e8 bb 4b 50 19 3d
       -0.00826714 -0.006329827 -0.007109991 0.03743009
000170 68 cf 80 bd a6 19 25 bd 8e 1f a3 bc 1f 2f 2c bd
       -0.062895596 -0.040307663 -0.019912507 -0.042037126
000180 1f f9 39 3c 20 90 b6 3d e2 f6 3d bd 03 20 4f bd
       0.011350899 0.089142084 -0.046378024 -0.050567638
000190 6c 70 8e 3c 32 2e a3 3c 94 c1 33 bd e2 df 0a bc
       0.017387591 0.019919489 -0.043885782 -0.008476229
0001a0 f7 d4 92 bd 5a c2 97 bd 02 69 72 bd fd 9e 94 bc
       -0.07169526 -0.074101165 -0.059182175 -0.018142218
0001b0 29 7b 86 3b d8 41 59 bd 9b dd 79 bc a0 c7 cb bd
       0.0041040373 -0.05304131 -0.015250589 -0.09950185
0001c0 f4 07 df 3c 0a 9c 1e bd be a9 d3 bc bd 3b c0 bb
       0.027225472 -0.03872303 -0.025837775 -0.0058664964
0001d0 c0 1b 40 b9 ac 62 56 3d d6 4a c5 3d 47 59 02 bc
       -0.00018320885 0.052340195 0.096334144 -0.007955856
0001e0 2a b4 2b 3d 2a 25 3c 3d e7 94 74 3d 79 18 02 bd
       0.041919865 0.04593388 0.059712317 -0.03176162
0001f0 2f a4 78 3d b5 16 df bd 59 dc 62 3a de a1 2b 3a
       0.060703453 -0.10893003 0.000865405 0.00065472524
000200 24 4b 91 3d a4 0d c8 bc 95 05 16 bd e6 39 24 bd
       0.0709441 -0.024420567 -0.036626417 -0.04009428
000210 93 dd c6 bc 17 4e 5f 3d 1b c7 a4 3c 61 2e 2a bd
       -0.024275577 0.05451783 0.020114472 -0.041548137
000220 87 d7 83 3d a0 a3 4b bd e2 e8 33 3d 71 bc 14 3d
       0.06437593 -0.04971659 0.043923266 0.036312524
000230 9c c5 17 3c eb 7b c4 3d 81 d3 38 3c e4 3e ec bb
       0.009263422 0.09593948 0.011280895 -0.0072096456
000240 c4 e0 83 3d 48 9d d5 3b 6b bc 08 bd fd e2 3e 3d
       0.06439355 0.0065189935 -0.033382814 0.04660319
000250 02 80 6b 3d bf bd ca 3d c9 84 0e bd d5 2f 92 3d
       0.057495125 0.098994724 -0.034794603 0.071380295
000260 99 9a ee 3c f0 69 b4 bd ad 2e 5d bd 28 9a 9f bd
       0.029126452 -0.088092685 -0.05399959 -0.07793075
000270 1a 21 6e bd a4 9c 99 bd b2 f2 d9 3d c1 17 a3 3b
       -0.058137037 -0.0750058 0.106419936 0.004977197
000280 58 f7 6c bd ea b3 47 3d 64 bc 84 3d 2d 75 6a 3d
       -0.057853073 0.048755564 0.06481245 0.057240654
000290 03 d8 6d 3d ce 4c 6e 3d 85 01 a4 3d 5a 7a 94 3c
       0.058067333 0.058178715 0.08008102 0.018124748
0002a0 50 c7 a3 3d 2a b3 03 3c 7c fa 55 bd 62 b7 66 bd
       0.07997 0.0080383215 -0.052240834 -0.05632723
0002b0 5b e7 0e 39 d8 2a 49 bd 8b 2d 51 3d d3 fd 87 bd
       0.00013628362 -0.049113125 0.051068824 -0.0664021
0002c0 dc a5 a2 bd 4d 27 a6 3c 92 17 cd 3c 86 df c3 bd
       -0.079417914 0.020282412 0.025035653 -0.09564118
0002d0 42 39 a3 bd 55 66 3b bd 3e 22 7b bc f1 1e 10 bd
       -0.079699054 -0.04575189 -0.015327988 -0.035185758
0002e0 9f ae 83 bd 85 37 b7 3c b5 93 90 bd c6 ec 77 3d
       -0.06429791 0.022365341 -0.07059423 0.06052854
0002f0 cc 15 7b 3d 10 82 6c 3d 21 78 54 3b 26 4e b0 bd
       0.061300084 0.057741225 0.0032420235 -0.08608656
000300 69 60 13 3d 0c 67 b2 3d f1 eb 83 3b 68 a8 61 bd
       0.035980616 0.08711061 0.004025929 -0.055092245
000310 bd 00 d7 bb e1 36 11 3b f7 b8 88 3d d7 e9 94 bd
       -0.0065613673 0.0022157955 0.06675904 -0.07271164
000320 89 ae 19 3b 64 1b 4f 3b 4a c4 c7 bd 1c a9 74 3c
       0.0023449978 0.003160202 -0.09754236 0.014932897
000330 d4 f0 2b bd be 13 27 bd 9e 41 a1 bd 97 32 11 3d
       -0.04197772 -0.040790312 -0.078738436 0.035448637
000340 e6 7e 2e 3d 4e a6 74 bd b2 33 a3 bd c5 f7 09 3d
       0.04260149 -0.059728913 -0.079688445 0.033683557
000350 b3 fa bb 3b af 02 8c 3d a7 54 8a bb 70 5a 75 bc
       0.005736673 0.06836449 -0.004221517 -0.014975175
000360 15 ad a1 bd 54 dc e4 3b fe ee 31 3d cd 7b 44 3d
       -0.07894341 0.006984273 0.04344081 0.047969628
000370 bd b6 92 bb d0 1b 57 bd 24 cb 9e 3d 1d e1 dc 3d
       -0.0044773505 -0.05251676 0.0775359 0.107851245
000380 f0 6e 03 3d a1 1f d3 3d 72 d1 50 3d 43 3d 5e bd
       0.03208822 0.10308767 0.050980993 -0.054257642
000390 b0 f0 60 bb bc 24 8a bd 98 d4 91 bd 40 87 92 3c
       -0.0034323148 -0.06745288 -0.07120627 0.017886758
0003a0 47 d2 0f 3c 77 27 5b 3c 44 6e ac bd ac fa 0e 3c
       0.008778161 0.013376108 -0.08419469 0.008726757
0003b0 dc 47 be bc a7 d2 bc bd cf 41 00 3c ee 50 22 bd
       -0.023227625 -0.09219866 0.00782819 -0.03962796
0003c0 c4 d4 ab bb bc 9a 0b 3d 06 c2 95 bd 4a 29 3f bd
       -0.0052438695 0.034083113 -0.07312398 -0.046670236
0003d0 9a 4a 97 3c a7 a1 cd bd 26 08 2c 3d 5b 71 3b 3d
       0.01846819 -0.10040598 0.04199996 0.0457624
0003e0 3c f5 13 bd c3 3c a3 3c 3b 39 28 bd 39 2c 71 bd
       -0.036122546 0.019926434 -0.041070204 -0.058880065
0003f0 1a 39 9b 3d a0 9d b6 3b 54 15 89 bd 0f 91 18 bd
       0.07579251 0.0055729896 -0.06693521 -0.037247714

lstm.weight_hh_l1 f4 [512, 128]
000000 a0 b9 21 bd 70 f6 4b 3c c9 b8 14 bd a5 a0 eb 3d
       -0.039483666 0.012448892 -0.036309037 0.1150525
000010 9f d3 8d bd 12 a1 ce 3c 20 13 01 bd 84 b5 98 bc
       -0.06925129 0.025223289 -0.03151238 -0.01864124
000020 d7 ce cd 3c c9 c6 2f bd ea db ee 3c 3d 2c 92 3c
       0.025123043 -0.042914186 0.029157598 0.01784336
000030 d0 30 9e 3d 42 c2 8f 3c 4c a7 9e bd 7b 82 13 bd
       0.07724154 0.017548684 -0.07746753 -0.036013108
000040 fa 0a b6 3c 11 f2 4b 3d a2 26 5d bd de b6 ce bb
       0.02222203 0.0497914 -0.05399192 -0.0063084206
000050 c2 ea a9 3d 70 d4 65 3c 3d c6 94 3c 23 bf 0d 3c
       0.082967296 0.0140277 0.018160934 0.008651528
000060 3d 06 a2 bd 82 bf 28 bc de 14 2c bc dd ee d3 3d
       -0.07911346 -0.010299565 -0.010503022 0.10348294
000070 b2 69 6a 3d 85 62 23 bd 53 5b 25 bd a7 c0 92 3d
       0.057229705 -0.039888877 -0.040370297 0.07165652
000080 26 cc 99 bb 3c 4b 96 bc 57 83 9e 3d 18 9a 0a bc
       -0.004693526 -0.018346421 0.07739895 -0.00845959
000090 85 aa 94 bc 03 01 95 bd 67 6f 05 3d 29 a5 4e 3c
       -0.018147716 -0.072755836 0.032576945 0.012612619
0000a0 19 39 11 3d 50 fd 5a 3c 0e 53 85 bc 5d 24 79 3c
       0.035454843 0.0133660585 -0.016274955 0.015206424
0000b0 21 d3 cc 3d 74 0a e4 bd 1a b9 d3 bd 69 6a 5a 3d
       0.10001207 -0.11134806 -0.1033804 0.053324137
0000c0 01 a7 26 bd 19 5d eb 3c 3a 79 99 3d d0 4a bd 3d
       -0.04068661 0.028730916 0.07493825 0.09242785
0000d0 74 8d 18 3c 7d a1 96 3c 10 07 25 bd 03 56 83 bc
       0.009311069 0.01838755 -0.04028994 -0.016032225
0000e0 88 1a 8d 3d ba 0c 32 3d df 5c 0e 3d 85 59 01 be
       0.06889826 0.04346917 0.034756538 -0.12631805
0000f0 75 d6 6e 3c 60 5e be bd f6 5c 89 bd 8b dc 1f bd
       0.014577498 -0.09295344 -0.06707184 -0.039028686
000100 45 f4 ef bc c5 45 b7 3c c3 be d4 bc 4a b2 14 bd
       -0.029291281 0.022372136 -0.025969869 -0.036302842
000110 13 9f 5e bd 12 8f a1 bc 62 63 46 bd f7 d6 81 3d
       -0.054350924 -0.019721542 -0.048434623 0.063398294
000120 94 6c 1d bd 44 5c 94 3d 59 e0 20 bd c0 1e a3 bd
       -0.038433626 0.07244161 -0.039276455 -0.079648495
000130 9a 49 e0 bd 28 30 7b bd e2 05 f4 bd 49 71 8e 3d
       -0.109515384 -0.061325222 -0.119151846 0.06955201
000140 70 65 fa 3c ff 89 20 3d ec 11 7b bd 77 64 99 3d
       0.030565947 0.039194103 -0.06129639 0.07489865
000150 49 b8 9b 3c ed 5a d4 bc bf 5e ab bb 32 bf d4 3d
       0.019008772 -0.025922263 -0.0052298005 0.1038803
000160 f1 68 f4 3c 25 53 d6 bc 52 a9 26 bd fb 06 44 bd
       0.029835196 -0.026162693 -0.04068882 -0.04785822
000170 98 c8 27 bd e8 be b0 bc 74 34 cb 3c 48 ae 8a bd
       -0.040962785 -0.021575406 0.024805285 -0.06771523
000180 66 04 e4 3c 70 47 c0 bc a3 8a c3 bc 1f c9 ad 3d
       0.027834129 -0.023471564 -0.023869818 0.084856264
000190 57 81 13 3d 0d 2a 05 3d 9d cb 3a bb fe 8b 97 3d
       0.03601202 0.032510806 -0.002850271 0.07399748
0001a0 19 4c aa bd c1 b9 b6 3c 85 c9 e9 3c 62 f0 f8 bd
       -0.08315296 0.022305371 0.028538475 -0.121552244
0001b0 43 03 f4 3c cc d0 a8 3c a0 4d 1b bb f4 67 d2 3c
       0.029786712 0.020607375 -0.002369739 0.025684334
0001c0 96 e4 9b bc 13 4e ce 3c 41 dd f6 3c 81 a0 6b 3c
       -0.019029897 0.025183713 0.030134799 0.014381529
0001d0 51 8e dc bd b7 d3 1f 3d b1 89 79 bd 0f 20 e2 3b
       -0.10769332 0.039020266 -0.06092233 0.0069007943
0001e0 88 6a e8 3d 54 74 84 bd 28 46 80 bd 34 ab c9 bc
       0.11348444 -0.064675 -0.06263381 -0.024617769
0001f0 ae 78 71 3d 2c b1 4f 3d fb c0 cc ba 07 5e 69 bd
       0.05895298 0.050706074 -0.0015621478 -0.056974437
000200 98 56 e7 bd 8c 5f ee bc be ed 3f bd 4a b0 02 bd
       -0.11295813 -0.029098295 -0.046857588 -0.031906404
000210 0b 89 7c 3d 74 1f f2 bb ba 5a 06 3d 7e d4 34 bd
       0.06165413 -0.0073890034 0.032801367 -0.04414796
000220 62 83 99 bc da 37 03 3d 72 3e 4c 3b 40 90 ca bc
       -0.018739406 0.032035686 0.003116515 -0.024726987
000230 e5 a8 c8 bc 62 06 3e bd 4b a0 90 bd a9 b6 c6 3d
       -0.024494598 -0.046392806 -0.070618235 0.097028084
000240 df 88 98 3d 2a d9 54 3d 57 a1 ea bb 95 26 4b 3d
       0.07447981 0.051964916 -0.0071603465 0.04959734
000250 76 09 0b 3d 7f 6d bd 3d 7b 2e 5b 3d 6b 1f cf bc
       0.03394457 0.092494 0.053511124 -0.025283536
000260 c3 cb 8a bc dc a0 18 3d da 44 51 bd 02 bb 95 bd
       -0.016942864 0.037262782 -0.051091053 -0.073110595
000270 3e 3d 60 3d a0 6b 68 3d 36 56 8a bd 5c 36 24 3d
       0.054745905 0.056743264 -0.06754725 0.040090904
000280 72 54 7f bd 31 bf 88 bc 1b 71 65 bd 54 90 bc bb
       -0.062336393 -0.01669273 -0.05601607 -0.00575451
000290 34 8b 1e bd 14 2a 33 bd 22 6a cc 3d 25 ab d5 3d
       -0.038706973 -0.0437413 0.09981181 0.10433034
0002a0 7f 46 8f 3d ba 80 0b bb 8e 90 cb 3c da 04 2c b8
       0.06995868 -0.0021286444 0.024849202 -4.1012514e-05
0002b0 5f f3 21 3b 7e c4 ad bc d3 ee 87 bd 53 f2 a3 3d
       0.002471171 -0.021211859 -0.06637349 0.08005204
0002c0 71 e0 4d bd 9a 09 8e 3d 23 e0 70 bd 10 fb ab bd
       -0.050262872 0.06935425 -0.058807503 -0.08397496
0002d0 bb 5b eb bc da 0b ef bc 89 f6 2d 3d 09 f0 a7 3d
       -0.028730264 -0.029180456 0.042471442 0.0820008
0002e0 de 0d 7b bd 01 d8 ad bc 5c b6 29 bd cb 92 7f 3d
       -0.06129252 -0.021221163 -0.041433677 0.062395852
0002f0 b4 a8 bd bd fb f4 b4 bd 46 4d 76 bd 64 3c 9e 3d
       -0.09260693 -0.08835789 -0.060132287 0.07726362
000300 b3 a2 6b 3d 44 fe 29 bc fe 47 bb 3d c2 9b 46 bd
       0.05752821 -0.010375563 0.09144591 -0.048488386
000310 ba d6 1b 3d 85 cd 08 3d 3d ba 55 3d 04 da 42 3d
       0.038046576 0.033399124 0.052179564 0.047571197
000320 f0 7c b9 3d 1e e9 9a 3d 37 31 ba 3c 81 a2 50 bb
       0.09057033 0.07563995 0.022728546 -0.003183514
000330 ca ef 20 3b 1d 0d bf bc 08 70 38 3d 6d e5 21 bd
       0.0024556988 -0.023321683 0.045028716 -0.039525438
000340 53 38 97 3c e7 cd bb bd 05 a8 be bd 45 96 47 3d
       0.018459475 -0.09170132 -0.09309391 0.048727293
000350 8f a5 28 3d 56 73 a2 3d 7d 80 13 bd 43 b6 76 3d
       0.041173514 0.07932155 -0.036011208 0.060232412
000360 3e 66 3c 3d 87 ba 8a 3d 51 4a c3 bb aa 3b a1 3c
       0.045995943 0.067738585 -0.005959787 0.01968177
000370 e4 9d 2c bc 53 2e 7c 3d 86 be a8 3d f0 80 7e bd
       -0.010535691 0.061567616 0.082394645 -0.062134683
000380 f6 6c 21 3d d4 5f 52 bd 2c e4 19 3d 73 ac ad bd
       0.039410554 -0.05136092 0.037571117 -0.08480158
000390 52 44 41 3d 9c e5 bf 3d 9c 9e c7 bd d4 6f 87 bd
       0.047184296 0.093699664 -0.09747049 -0.066131264
0003a0 9f df 61 bc 5a 80 a4 3d 77 cd 3e 3c 93 e0 94 3c
       -0.013786226 0.080322936 0.011645666 0.018173492
0003b0 ea 9f 63 3d 65 ea bc bd 08 ec d9 3c 98 4b b2 3c
       0.055572428 -0.09224395 0.026601806 0.021764562
0003c0 f3 bb 8b 3c 36 e1 35 bd f4 58 6a 3d 56 f2 9e 3d
       0.017057395 -0.04440423 0.05721374 0.07761066
0003d0 ea fd 12 3d c6 de f2 bc 13 96 87 bc 78 6f 9d bc
       0.035886683 -0.029647242 -0.016551053 -0.019218192
0003e0 30 d6 22 3a 67 6a 1d 3d 50 ad 63 3d a9 5a 84 3c
       0.0006211726 0.03843155 0.055585206 0.016156511
0003f0 76 80 b1 3a f6 06 64 3d 57 e3 a0 bd c9 52 3f 3d
       0.0013542313 0.0556707 -0.07855862 0.04670981

lstm.bias_ih_l1 f4 [512]
000000 28 30 1c bd 7d 07 29 3d 56 c9 44 bd 22 e0 81 bb
       -0.038131863 0.041266907 -0.04804357 -0.0039634863
000010 56 1d 95 3d 74 2f 7f 3d 4c a4 28 3d fe 4b ee 3b
       0.07280986 0.062301114 0.04117231 0.0072722426
000020 4c 74 fd 3c 91 c0 0a bd 92 4a c6 3d f2 a6 0a b9
       0.030939244 -0.033875052 0.09682192 -0.00013222898
000030 4c 94 1a bd 83 5b 71 bd 03 a5 bd 3d ad 0a 3f 3c
       -0.037739083 -0.058925163 0.09259989 0.01166026
000040 d9 67 8c 3d 6b 8e 49 bd 6c 82 ac bc d2 b9 4f 3d
       0.06855745 -0.049208086 -0.021058284 0.05071432
000050 8a 7e 1e 3d e3 51 c3 3d 8b 8b 44 3d ec 56 53 3b
       0.038694896 0.09537103 0.04798464 0.0032247854
000060 43 8b 99 3d c3 c4 df 3d 92 7c b3 3d b7 a4 55 3b
       0.07497265 0.10926201 0.08763994 0.0032599398
000070 04 6e a5 bb b7 e1 90 3d ce 8c 74 3c 6b d8 0b bd
       -0.0050485153 0.07074302 0.014926149 -0.03414194
000080 75 5d 9d 3d 08 fe 1e bd b0 0f b9 bc a8 ee a1 3d
       0.07683841 -0.03881648 -0.022590488 0.07906848
000090 1e 1d af 3d 06 15 12 3c 8d db ca 3d 9d 33 04 3b
       0.085504755 0.008916145 0.09905157 0.0020172365
0000a0 62 a7 34 bc 3e 80 c6 3d 18 be 6b bd 8c bc 55 3d
       -0.011026235 0.09692429 -0.057554334 0.052181765
0000b0 a2 ff 86 bd b0 8f 01 3d 3a b8 2c 3d 1b 2c cf 3d
       -0.06591727 0.03163117 0.04216788 0.10115834
0000c0 b3 a0 fb bc 31 91 98 3c 93 88 46 3c 83 f7 62 3d
       -0.030716276 0.01862392 0.012117523 0.055411827
0000d0 1b 79 a4 3d 14 6d 83 bd dc 82 c2 bb df 59 d5 3c
       0.080309115 -0.064172894 -0.00593601 0.02604383
0000e0 37 2d 99 3d 22 a4 30 bd 06 bf d4 bc 36 65 26 3d
       0.07479327 -0.04312528 -0.025969993 0.040623866
0000f0 0f 40 75 bb 3a 36 42 3d f7 33 d9 bc cd 34 54 bb
       -0.0037422215 0.047414996 -0.026514037 -0.0032380105
000100 71 67 2f bc 92 53 05 3d e8 2a 19 bd 5d bc 7c 3a
       -0.010705815 0.032550402 -0.037394434 0.00096411054
000110 48 39 48 3d 40 2a a0 3c 4b cb 02 3d 36 4d 8c 3d
       0.048882753 0.019551396 0.031932157 0.06850664
000120 a5 19 3d 3d a1 73 13 3c d8 3b 3e bd 7b c0 0a bd
       0.046167035 0.008999736 -0.04644379 -0.03387497
000130 a3 1d e0 bc aa 29 17 bc 99 44 81 3d c7 e6 a8 3d
       -0.027357882 -0.009226242 0.06311912 0.08247142
000140 8c 4a 43 3d 67 71 d7 bc e1 c7 ac bc 02 4c 94 bb
       0.047678515 -0.026299192 -0.021091403 -0.0045256624
000150 0b 70 e5 bc 51 2e 81 bd 30 53 55 bd 76 47 62 3c
       -0.028007528 -0.06307662 -0.052081287 0.013810983
000160 62 7c 6f 3d 84 88 96 bd 85 df 7f bc 7a 19 91 3d
       0.05846823 -0.07350257 -0.015617256 0.070849374
000170 02 77 47 bd 35 33 99 3d 6b e7 ad bd 8a e7 bd 3d
       -0.04869748 0.0748047 -0.08491405 0.09272678
000180 56 16 1c bc 2f 32 a7 3d 5a 75 3f 3d d6 70 b2 3c
       -0.00952681 0.08163869 0.046742775 0.02178232
000190 69 17 5c bd b0 4e ce 3d 4f d6 62 3b b7 bd b1 3c
       -0.053733263 0.10073602 0.00346126 0.021696908
0001a0 a1 d1 cf ba 78 5b 72 bd 48 ea 21 3d 56 e8 87 3d
       -0.0015855321 -0.059169263 0.03953007 0.066361114
0001b0 55 77 96 bc b0 36 30 bd f4 e3 75 3d a9 45 6a 3d
       -0.018367449 -0.043020904 0.060031846 0.05719534
0001c0 df ef 29 bd cd 92 51 bd 57 1e 73 bd 6c 69 e2 3c
       -0.041488525 -0.05116539 -0.059355106 0.02763816
0001d0 02 47 59 3c 16 dd 38 bc 50 0a f5 bc ee b3 8a 3c
       0.0132615585 -0.01128318 -0.029912144 0.0169315
0001e0 59 cc b1 3d 39 4d 2b bd db 02 45 3d 72 2b a4 3d
       0.08681554 -0.041821692 0.048098426 0.08016099
0001f0 8a 73 63 bd 39 ff e7 bc ca 55 17 3d 15 47 55 3c
       -0.05553011 -0.028319942 0.03694705 0.013017436
000200 17 1f 90 3d ee ea 29 bd f4 ba bd 3c 18 2a 47 3d
       0.0703718 -0.041483812 0.023160435 0.048624128
000210 33 ce 75 bb f1 ee 31 bd be 64 65 3d 50 53 ad bc
       -0.0037506938 -0.043440763 0.05600428 -0.02115789
000220 7d e1 0e bd 43 4b 35 3c 8b 9e bf 3c 28 f8 63 bd
       -0.03488301 0.011065307 0.023391029 -0.055656582
000230 10 7c 80 bc 56 bc dd bb 7c a2 98 bd 0f d5 3e bd
       -0.015684158 -0.006766836 -0.074528664 -0.046589907
000240 90 9d e4 3b 8f 7d 5b bd c4 60 cc bb 79 39 19 bd
       0.0069767907 -0.05358654 -0.0062371213 -0.037408326
000250 c4 53 bd bc ab 0b 01 bd cc 57 2a bd 8a ac 89 3d
       -0.023111232 -0.031505268 -0.041587636 0.06722362
000260 17 a8 2c 3d e1 19 73 3d 6b 8b d0 3c e3 da 23 bd
       0.04215249 0.059350852 0.025457105 -0.04000367
000270 70 bb f6 bc 0e 4f d5 3c 1d 88 ea 3c fd 2c 37 bc
       -0.030118674 0.026038673 0.028629357 -0.01118016
000280 5f 1c 8b bd 87 96 3b 3d 55 84 7e bd 81 48 c8 3d
       -0.06792521 0.04579785 -0.06213792 0.09779454
000290 05 5a bf 3d a9 44 a2 bd 62 7e c1 bc 11 16 15 3d
       0.09343342 -0.07923252 -0.023619834 0.036397997
0002a0 ce 5e 78 bd f6 33 fb bc 30 6a ab 3d 9e 2f c3 bc
       -0.060637288 -0.030664425 0.08369863 -0.023826417
0002b0 ca 8e de bc 1e 39 77 3d 6a 69 dc 3d e3 fd 54 3d
       -0.027167697 0.060357206 0.10762294 0.051999938
0002c0 ad ee 88 3c fd 38 8c 3d 38 04 53 3d 8f 8a 10 3d
       0.016715372 0.06846807 0.051517695 0.03528839
0002d0 04 d1 2f 3d 13 80 24 3d bf a9 07 3c 0a a8 de bb
       0.042923942 0.040161204 0.008280217 -0.006794934
0002e0 5d 45 79 bd c7 24 02 3d 63 92 a0 3c 9e a7 d9 3c
       -0.060857166 0.031773355 0.019601053 0.026569184
0002f0 9f ae 97 3d 0c 67 c7 3d b3 e1 fe bc 16 9d 9b bd
       0.07406353 0.097364515 -0.031113481 -0.07598321
000300 af 66 80 bc 76 26 30 bd db 59 a1 3d 5b 79 67 bd
       -0.015673963 -0.04300543 0.07878467 -0.056512218
000310 7a 5f 74 3d 16 89 36 bd a3 d3 27 3d 0b 9c 90 bd
       0.059661366 -0.04456433 0.040973317 -0.07061013
000320 a2 95 0b 3c 28 08 c3 3d 14 e5 cd 3c bb 91 44 bd
       0.008519562 0.0952304 0.025133647 -0.047990542
000330 9e ea 3e 3c 19 2c 90 bd 46 64 06 3d 77 b9 0a bd
       0.011652617 -0.07039661 0.032810472 -0.03386828
000340 d3 0b 70 bd a1 04 41 3d ae 2d 18 bc 2d 4a 50 3d
       -0.058605026 0.047123555 -0.009288235 0.05085199
000350 c4 aa 65 3d 00 f6 ef 3c 3c c8 91 bc e4 3e 99 bd
       0.056071058 0.029292107 -0.017795675 -0.074826986
000360 cd 88 9e bc 3a 4e 92 3d ee 46 89 bd f9 5b 22 3d
       -0.019352341 0.07143827 -0.06702982 0.039638493
000370 81 cd 53 bc 58 8e 03 3d a7 5a a6 3d 2d 84 57 bd
       -0.012927414 0.03211817 0.08122759 -0.052616287
000380 01 58 d8 bc 1f bc a3 3d 13 bd eb 3c 10 b0 8c 3c
       -0.026409151 0.079948656 0.028776681 0.017173797
000390 3f ca 37 bc 2f ee 5e 3d 24 30 80 bc 6c f5 05 bd
       -0.011217653 0.05442637 -0.015647955 -0.032704756
0003a0 37 97 b0 3c 9f ca ae 3c e9 3f ac 3d aa 7c 79 bd
       0.02155648 0.021336852 0.084106274 -0.060909905
0003b0 b0 db 5a 3c ad fb 0b 3c 43 5f 28 bd b2 23 49 bc
       0.013358042 0.008543891 -0.041106474 -0.012276577
0003c0 89 5e c9 3c 87 b3 6c bd 1e 3c a4 bc 9d 8c c1 3d
       0.02458121 -0.057788398 -0.020048197 0.09450648
0003d0 20 b1 8c bd 30 b8 cd 3b 92 09 bf 3d 56 cf 72 bc
       -0.068697214 0.0062780604 0.09327997 -0.014819941
0003e0 b0 60 c4 3d f8 f7 df 3b dc 38 ee 3c 91 a5 ca 3d
       0.09588754 0.00683498 0.029079847 0.098948605
0003f0 ec 07 30 bc e9 f8 78 bc 1b b7 5a 3d 63 1b af bc
       -0.010744076 -0.015196064 0.05339728 -0.021375364
